Assignment 2/best_model.pth (torch, 404981 bytes, 22 tensors)

features.0.weight f4 [16, 1, 3, 3]
00000000: 8727 80be ee45 34bf 1c1a bd3b 5e73 a83e
00000010: f8ab 0abf a46a f03c 35e6 fb3e 0a68 883e
00000020: 4127 61be 0763 99bd ee16 ccbe b396 34bf
00000030: 4e3c ce3e 750c fc3e 34b1 a3bc 5321 75bd
00000040: ed3a b33e ba29 003e 4c26 a73e 54ea b1be
00000050: 184a 18be fab6 f33e 0dc9 b33e 7f08 2abf
00000060: 69f0 af3d 470a d1bd 31b5 4cbb b14c 05bf
00000070: e192 94be 70fd 153d a30c 9fbe b633 7bbc
00000080: ff16 0c3e b1b8 d13e f251 f33e 92e4 483e
00000090: aced fe3e 4e71 323b b555 943d 6ee6 133f
000000a0: b588 033f ce73 153f 95cf 3f3e f2d7 f3bc
000000b0: 8098 933e d4db 3abd 76c0 073f 4660 4b3d
000000c0: 2c1f fbbe 3861 e23e 22bf 873e 4fad efbe
000000d0: b601 13be 12f8 103e 2ec5 7cbf ee5b bfbe
000000e0: 35d2 0dbc d7bd 0abe 38f5 5dbc 685b fe3d
000000f0: 6918 b3bd 0f7e 833e bed4 a33e b77f e8be
00000100: f45d f23e 6c7c d7bd 5951 eebd 3bf6 1b3f
00000110: c551 debe ef8f fb3d 59c2 92bc 6b95 1ebe
00000120: 1ce7 c63e a1bf 133e 0ed9 96be 681d 0dbf
00000130: 3457 08bf 3335 433e 01a7 bd3d fb80 b03e
00000140: 0abf 62bd bb99 ebbe 3e33 373e bf75 473d
00000150: caed 263f fdc1 6dbe 5fe2 7e3e 1a13 a8be
00000160: 540c 9d3d bdd2 8bbe ef5c f3be efd8 c63d
00000170: 45b4 e63e 0e6c a5be 7b1e 03bd 7b42 183f
00000180: 2e89 5bbd 72a4 7b3e de08 4f3f 4e8c 4dbd
00000190: 7f87 14bd a3e7 313d f8cd 4bbf 92cd 4abf
000001a0: c926 9c3d bca3 9ebe 6aa5 fabe c57a 2f3e
000001b0: 63b4 7e3e ea2e da3d 754d fb3d 5faf 06bf
000001c0: 8098 31bf 4466 9abe c4af 5bbe 5912 cebe
000001d0: 6757 d9be 72df c53e 06be 723e 34ce dc3d
000001e0: 2158 393e 8923 873e cacc 5d3e b6a4 d5be
000001f0: c936 0abf f4b4 09bf 80e0 203e 8f60 a1be
00000200: 02ca 13bf 5fe6 713e 8398 57be 33d4 74bf
00000210: d48f 8a3e de08 873d 82bf dfbd 7822 343f
00000220: 8d8c 0f3f 3f2a 15bd 2534 b73e 33d1 a13c
00000230: 8de8 86be ebe0 8c3d 93ad 10be 57a5 d4be
-0.25030157 -0.70419204 0.0057709347 0.32900518 -0.54168653 0.029347725 0.49199072 0.26641876
-0.2198763 -0.07489591 -0.39861244 -0.7054245 0.40280384 0.49228254 -0.019981958 -0.059846234
0.35005894 0.12515917 0.32646406 -0.3474909 -0.14872015 0.47600538 0.35114327 -0.66419214
0.085907765 -0.102070384 -0.0031235928 -0.52070147 -0.2901831 0.03661865 -0.3106433 -0.015332153
0.13680647 0.4096122 0.47523457 0.19618443 0.49790704 0.002722818 0.0724291 0.5777348
0.51380473 0.5837983 0.1873153 -0.029766057 0.28827286 -0.0456198 0.5302805 0.04965236
-0.4904722 0.44214797 0.2651301 -0.4681191 -0.14356121 0.14157131 -0.9873837 -0.37374824
-0.008656074 -0.1354898 -0.013547234 0.12419778 -0.0874489 0.25682113 0.31998247 -0.4540994
0.47337306 -0.105217785 -0.116366096 0.6092259 -0.4342176 0.122833125 -0.017914938 -0.15486686
0.38848197 0.1442857 -0.29462475 -0.55122995 -0.5325806 0.19063263 0.09260369 0.34473404
-0.05535797 -0.46015725 0.17890641 0.048696276 0.6520659 -0.23218532 0.24891041 -0.32827073
0.07668367 -0.27309218 -0.4753184 0.097093455 0.4505941 -0.32309002 -0.03201149 0.5947644
-0.05359762 0.2457445 0.80872905 -0.050182633 -0.03626203 0.043433797 -0.7961116 -0.79219925
0.07624585 -0.30984294 -0.48954326 0.17136677 0.248735 0.106534794 0.12270633 -0.52611345
-0.6937332 -0.30156147 -0.21453768 -0.40248373 -0.42449495 0.38647038 0.237053 0.107815176
0.18100025 0.263943 0.21660152 -0.41727227 -0.53989846 -0.5379174 0.1571064 -0.3151898
-0.57730114 0.23623036 -0.21054272 -0.9563629 0.27062857 0.06593488 -0.10925199 0.70365095
0.5607384 -0.036417242 0.3578197 0.019753074 -0.26349297 0.06878837 -0.14128713 -0.41532394

features.0.bias f4 [16]
00000000: 48c2 8b3e c304 ed3e a12c 793e 5e38 6c3d
00000010: f0ae 903e 7446 a03c b984 a33d 819c b3be
00000020: 0ba7 4a3e e212 19be 2bf0 4bbe 0eea 863e
00000030: 1a4d 96be c5a9 b3bd cef1 a23b 1135 d0be
0.27296662 0.46292695 0.24333431 0.057670943 0.28258467 0.019564845 0.07984299 -0.3508034
0.19790284 -0.1494861 -0.19915836 0.26350445 -0.293557 -0.08772615 0.004972673 -0.40665486

features.1.weight f4 [16]
00000000: e47a 583f 6503 923f 861a 613f d39f 633f
00000010: d82d 8f3f 24ab 9a3f ad6b 463f 8976 8b3f
00000020: 63e1 8f3f cf19 243f fb5d 8e3f 9d13 883f
00000030: 1df2 913f d181 873f 2393 8f3f 1f3a a43f
0.84562516 1.1407286 0.87931097 0.8891575 1.1185865 1.2083478 0.7750805 1.0895549
1.1240658 0.6410188 1.112243 1.0630985 1.1402012 1.0586492 1.1216778 1.2830237

features.1.bias f4 [16]
00000000: 2829 91be 1fb5 2ebe b802 e0bd 54f8 c3be
00000010: 173c f1bd 88e8 a6bd d4fa 59be 8012 c9be
00000020: 0567 3f3d 7a38 55be 4d88 5fbe 41f3 31be
00000030: 3488 d9be 0aa6 603d deb8 97be aaf7 9cbe
-0.28351712 -0.1706128 -0.109380186 -0.38275397 -0.11779039 -0.081498206 -0.2128709 -0.39271927
0.046729106 -0.20822325 -0.21829338 -0.1737795 -0.42486727 0.054845847 -0.2963323 -0.30657703

features.1.running_mean f4 [16]
00000000: 2ea0 a23e 03ca e53e 9d7b 703e a967 5f3d
00000010: 5ef3 b83d bbe9 96bb 66ef 163e 6385 b9be
00000020: a05d 633e 56e2 17be a128 8ebe a6f7 db3e
00000030: 8786 12be d04a b9bd 202a cb3d 1d81 f4be
0.31762832 0.44880685 0.23484655 0.054542217 0.090307936 -0.0046054996 0.14739761 -0.36234578
0.22203684 -0.14832434 -0.27765372 0.42962378 -0.1430913 -0.090474725 0.09920144 -0.47754756

features.1.running_var f4 [16]
00000000: 1342 843e ecb1 2f3e 89a7 133e 5259 2b3e
00000010: 0108 f33f 9ecc 3e3e a6ae d73e a789 9f3d
00000020: f0bd bc3d 5a6d 5b3d c506 383f e331 b53f
00000030: c166 a23f 3ace 493e 4561 473f de10 db3e
0.2583166 0.17157716 0.14419378 0.16733292 1.8986818 0.18632743 0.42125434 0.07789927
0.09215915 0.053571083 0.7188533 1.4155849 1.2687608 0.19707575 0.77882797 0.42786306

features.4.weight f4 [32, 16, 3, 3]
00000000: 1ba5 263d e819 8ebd 97e0 1cbe 49e8 9fbe
00000010: 4292 823d eb55 053f a728 cebe ed59 5dbd
00000020: 45e5 8fbe b9d6 04bc ebbf f33c 7523 b4be
00000030: 1145 10bf 6567 a73e ba9a 453f c437 c6be
00000040: d46c d1be d4b4 993d 7d54 863e ae26 063e
00000050: b7c3 10be d644 f3bd 25de 4b3e de12 253f
00000060: 435a e2be 52e3 18bf e643 863e 608b d9bc
00000070: c9f4 97bc 0d12 04bd ae55 e9be 71b7 2a3e
00000080: dfde 823e b33a d9be 6ecd a3be 4919 22be
00000090: 3d93 50bc bd39 bcbe 1568 2ebe c772 67be
000000a0: 9306 19bc 3afa dbbd 3471 ffbd c8d7 ccbe
000000b0: 3965 48be 87d4 8e3d 6d78 d5bc f5aa af3e
000000c0: d883 2e3e 399b 0e3e 3578 cf3d fb78 37be
000000d0: 6bb2 99bc fa46 d13e e95c d83d 2666 aebd
000000e0: b619 a0be dc26 a03d 5f10 123e e83c 03be
000000f0: c27a ddbd 8fa6 c8bd 15cd 8dbe bb62 0b3e
00000100: 1a5c 083e 640e 11be 642d e83d e88d 50bc
00000110: a750 1c3e bb44 babc 39e9 813e fdd9 093e
00000120: 28fa 0c3e a08d a5bc 77f0 26be 87ab dd3e
00000130: 5850 2e3f 9d9d 483f b428 4fbe 82ec 963d
00000140: 4151 1a3d 75be db3e 15f8 af3e 1b46 1c3e
00000150: b19d 89bc c51f 3b3f bdfb ae3e 0617 82be
00000160: 6add 383e 00bd 943e 5f72 143b 74c9 02be
00000170: 6210 6c3c b0d2 b7be 9ab1 c73c 642d a0bd
00000180: eac1 c3be 651b a3be b952 14be 4a8a 4b3e
00000190: 84a2 5bbe 40d3 8abe 8f57 4e3e 913c 853d
000001a0: cf70 05be b183 81bd 00fc ce3c bfcf c2be
000001b0: 3a3d a83d eb74 1abe 31e6 cf3c ec61 b83c
000001c0: 6fe1 503e d7be 0ebe 6cef 3ebe ad64 f2bd
000001d0: 6fb5 37be b218 76bd 895c 9ebd 9537 67be
000001e0: ab60 b23d 063f 103f 3704 83bd 1ec8 efbe
000001f0: 40ed 3a3e 0fc5 a43e 797b d0bd 8ed6 6abe
00000200: 6a27 09be 1f53 72bd 05dd 47be bfa2 2e3d
00000210: 293c 75be 3d76 92be 1ef1 e4bc cee2 5bbe
00000220: 497c 58be 915b 2bbf dd03 1fbd 9b78 a43d
00000230: d437 0e3b 047c 64be 70ad 06be 340f 873e
00000240: 19f8 abbd bc09 133e 0940 febd fced d0be
00000250: 3652 1ebd 5db6 06bf c144 d83d 7734 09be
00000260: cf18 7f3e a66d 763e b2b7 553d d3f2 923e
00000270: d395 b83e e13f 4a3e 8f27 f03d c493 ac3d
00000280: f7cf 243e d61e 57bc 22b8 0c3f 8e0b e6bd
00000290: df86 9e3d f7b0 e03e bd0a d33c ec74 0a3e
000002a0: f172 823c 1f73 2abe a53e 1bbe ea36 ccbd
000002b0: f39e e93e 5b38 863d 3927 89bd 6364 c2bd
000002c0: e73a a1be 37f5 6cbe d47d 3dbe 388c 323e
000002d0: c07b 993d d167 733d 148c 1c3e 430e 043c
000002e0: 7f5c 963e 060a df3e c1c6 d8be 64b5 5ebe
000002f0: 9abe 95bd cb00 9bbe ed9d ab3e 4cf5 8ebc
00000300: 2aa6 153f 9dd9 6c3f e0fa c03e d97a 52be
00000310: 9cf9 5f3d d32e c9bd f70d f5be 8d3b 79be
00000320: 5368 b0be a5f8 f9be f902 f7be dbca b6be
00000330: 1b3f 05be 3bfe 55bd 909d 31be 3a17 c03c
00000340: c3e2 bbbd 2d0b 123d 97a7 673e 93b0 e73d
00000350: 7787 733e 536c 8fbe 2a5b 983d 4871 443d
00000360: 072e 603e bceb 09bd b8a4 aebe 5931 7f3e
00000370: f56e 6fbd acb4 b6be e0a5 9bbe 5a4b 063d
00000380: 473f 26bb 76fd 75bc d125 88be 0bb2 f23c
00000390: f36f 5c3e 49ef 293f 56f3 a23d b4ad 563e
000003a0: ffa1 9a3d 0f7a 153e d24c 6ebe c1e0 293e
000003b0: ba7c ac3e 4f75 48be 8532 293e 441e 313e
000003c0: eea4 bdbe 8d47 0bbe bf78 1f3c 2611 02bf
000003d0: 7495 1ebf 69bb 37be c646 c53d 914b 2dbe
000003e0: 993e d43c 69ba 513e 0ab5 82bd 8c33 64bc
000003f0: 5c33 acbe 91c2 b3be a38f 35be 4f9c 3b3e
0.0406848 -0.06938535 -0.15320049 -0.31231907 0.06375553 0.52084225 -0.4026539 -0.054040838
-0.28104606 -0.0081078345 0.0297546 -0.35183302 -0.56355387 0.3269607 0.7718922 -0.3871442
-0.40903342 0.07505193 0.26236334 0.13100693 -0.1413716 -0.11878364 0.1990896 0.64481914
-0.4420949 -0.59721863 0.26223677 -0.026555717 -0.01854934 -0.032243777 -0.4557318 0.1667154
0.25560662 -0.42427596 -0.31992668 -0.15829958 -0.012730417 -0.367628 -0.17031892 -0.22602378
-0.009339946 -0.10741086 -0.12472764 -0.40008378 -0.19569863 0.0697413 -0.0260584 0.34310117
0.17042482 0.139264 0.101303495 -0.17917244 -0.018761834 0.40874463 0.10564596 -0.08515577
-0.31269616 0.07819912 0.14264058 -0.12816203 -0.1081443 -0.097973935 -0.27695528 0.13611881
0.13316384 -0.14165646 0.113367826 -0.012729146 0.15265141 -0.022737851 0.25373247 0.13462062
0.13767302 -0.020209134 -0.16302668 0.43294927 0.68091345 0.783655 -0.20230371 0.07369329
0.037675146 0.42918745 0.3436896 0.15261118 -0.016798826 0.7309535 0.34176436 -0.2540819
0.18053213 0.29050446 0.0022651178 -0.12772161 0.014408203 -0.3590293 0.02437668 -0.078211576
-0.38233882 -0.31856838 -0.14484681 0.19876972 -0.21448714 -0.27114296 0.20150588 0.06505693
-0.13031314 -0.06323946 0.025266647 -0.38049123 0.08214803 -0.15083663 0.025378319 0.02250763
0.20398496 -0.13939987 -0.1864602 -0.11835609 -0.17940305 -0.060082145 -0.077324934 -0.22579797
0.08709844 0.56346166 -0.06397288 -0.46832365 0.18254566 0.32181594 -0.101798005 -0.22933409
-0.13393942 -0.0591613 -0.19517906 0.042635676 -0.2394873 -0.28605834 -0.027947005 -0.21473238
-0.21141161 -0.66936594 -0.038822044 0.08030816 0.0021700757 -0.22312933 -0.13152099 0.26378787
-0.0839693 0.14359182 -0.124145575 -0.40806568 -0.03865262 -0.52622014 0.10559989 -0.1339892
0.24911807 0.24065265 0.05217714 0.28700885 0.36051807 0.1975093 0.11726295 0.084266216
0.16094957 -0.01312991 0.54968464 -0.11232673 0.07740568 0.43885013 0.025761956 0.13521165
0.015923949 -0.16645478 -0.15160616 -0.099714115 0.4562908 0.06553718 -0.06696934 -0.094918035
-0.3149025 -0.23140417 -0.18505031 0.17436302 0.074943066 0.05942518 0.1528781 0.008060041
0.29367444 0.43562335 -0.42339137 -0.21748883 -0.07311745 -0.30274042 0.33518925 -0.017450951
0.5845667 0.9251955 0.37691402 -0.20554675 0.054681405 -0.09823384 -0.47862217 -0.24339123
-0.34454593 -0.48822513 -0.48244455 -0.3570164 -0.13012354 -0.052244406 -0.17345262 0.023448575
-0.09174111 0.03565519 0.22622524 0.11312976 0.23782144 -0.28012332 0.07439263 0.047959596
0.21892558 -0.03367208 -0.34110045 0.24921168 -0.058455426 -0.35684717 -0.3039999 0.032786705
-0.0025367306 -0.015014043 -0.26591352 0.029625913 0.2152708 0.66380745 0.07956569 0.209647
0.075504296 0.14597343 -0.23271492 0.16589643 0.3368891 -0.19576 0.16523178 0.17296702
-0.37039894 -0.13601513 0.009733378 -0.50807416 -0.619468 -0.17942585 0.096326396 -0.16923358
0.025908755 0.20481266 -0.06382187 -0.013928305 -0.33632934 -0.3510938 -0.17730574 0.18321346

features.4.bias f4 [32]
00000000: f645 003d 27e8 77bd fd4a d63c 7d61 b2bc
00000010: ca91 d43c b5fb a5bd e9b5 d4bc d61f e33b
00000020: 183f 563d 1a1d c23c a831 01bc 3c84 3a3c
00000030: 5235 68bd e08c 91bd 735c ec3d a24a 803d
00000040: fa03 893d 9a47 73bd f1d2 a6bd 04bb 453d
00000050: bae7 35bd dce3 973a 2816 b6bc 200e acbd
00000060: e9c7 8cbd 9a95 673c f1d0 283c abaa 2b3e
00000070: 2d4d 9dbd 5f7a 803d 6aa4 e1bc bdf9 e5bd
0.03131672 -0.060524132 0.026158804 -0.021775002 0.025948424 -0.0810465 -0.025965648 0.0069312854
0.052306265 0.023695517 -0.007885374 0.011384066 -0.056691475 -0.07106948 0.11541071 0.06264235
0.066902116 -0.059394456 -0.08145703 0.048274055 -0.044410445 0.0011588293 -0.022227362 -0.08401132
-0.06874067 0.014134789 0.010303722 0.16764323 -0.07680736 0.062733404 -0.027544219 -0.112292744

features.5.weight f4 [32]
00000000: 8050 6a3f 2d32 6b3f f097 483f e4ee 393f
00000010: ab10 843f 1d18 823f dac1 813f 7ea3 a63f
00000020: e2a7 363f fdf5 633f b742 583f a23d 8a3f
00000030: f94a 823f 24d1 8a3f e261 863f aefe 813f
00000040: 9ee6 813f 5e96 843f ef12 4d3f 8d2f a33f
00000050: b073 923f 4f21 573f 38d7 7c3f 969a 813f
00000060: 1e65 853f dbe0 913f d103 353f 6ef3 7d3f
00000070: daff 763f 8fb1 463f 417e 823f 35eb 8c3f
0.91529083 0.9187344 0.7835684 0.72630143 1.0317587 1.0163609 1.0137284 1.3018644
0.7134992 0.89047223 0.844768 1.0800059 1.017913 1.0845075 1.0498621 1.0155847
1.0148504 1.0358388 0.80107015 1.2748886 1.1441555 0.840352 0.987659 1.0125301
1.0421484 1.1396745 0.7070895 0.9919957 0.9648415 0.7761468 1.019478 1.100928

features.5.bias f4 [32]
00000000: f445 1cbf 9d72 0cbf a8a7 1abf c150 edbe
00000010: 37e1 9cbe b886 06bf 7d7b 5abf 7624 21bf
00000020: be6d 39bf 18d5 12bf 5881 06bf 5a8f 07bf
00000030: 8891 55be e43b adbe db82 45bf 10e9 dcbe
00000040: 5045 18bf ef8c 09bf 33a7 0bbf 44e1 a5be
00000050: f72b 43bf 177f 04bf 982b 1ebf 18a9 71be
00000060: 7533 46bf ae5e cbbe 0583 d1be c22f 07bf
00000070: 2e88 4ebf a92e d1be 938c 23bf 9452 67be
-0.6104424 -0.54862386 -0.60412073 -0.46350673 -0.30640575 -0.52549314 -0.8534468 -0.6294626
-0.7243308 -0.57356405 -0.5254111 -0.5295311 -0.20856297 -0.33834755 -0.77152795 -0.43146563
-0.5948076 -0.5373067 -0.54552 -0.32398427 -0.7623896 -0.51756424 -0.6178527 -0.2359966
-0.7742227 -0.39720672 -0.40920272 -0.5280725 -0.80676544 -0.4085591 -0.63886374 -0.22590095

features.5.running_mean f4 [32]
00000000: 06e1 68be 2cd8 8f3e cccd 1541 c7fc 70c0
00000010: 9b02 eabf 146a 1ac1 a7ca bac0 9a10 31c1
00000020: a667 79c0 d6c6 13c0 5d2d 85c0 8a3e c0c0
00000030: 0976 68bf 6ea3 c8c0 f2f1 0840 4030 9bc0
00000040: 52dc c13f 78c5 853f 7119 b3bf 0412 cbc0
00000050: 738e fac0 ed17 12c0 3e93 90c0 f141 55c0
00000060: b1da 5ec0 de4e 3fc0 e693 0e41 6046 94c0
00000070: 9944 aac0 78fe acc0 61a8 2040 08d9 1cc1
-0.2274209 0.28094614 9.362743 -3.7654283 -1.8282045 -9.650898 -5.837238 -11.066553
-3.8969512 -2.309011 -4.1617875 -6.007634 -0.9080511 -6.26995 2.1397672 -4.84964
1.5145361 1.0450888 -1.3992139 -6.345949 -7.829889 -2.2827103 -4.517974 -3.3321497
-3.4820979 -2.9891887 8.911108 -4.6335907 -5.3208737 -5.406063 2.510277 -9.802986

features.5.running_var f4 [32]
00000000: bbb4 4341 af4d ad41 d53c 1442 1bb0 7741
00000010: 6b08 ca41 912f 0142 efba 9041 5035 5342
00000020: dd48 7f41 b207 a741 a4bc 9d41 0a3d a541
00000030: 63cd a141 d03c c741 d1f1 a641 c34f bb41
00000040: ef53 9041 7430 bb41 2064 9441 5a6e e541
00000050: b74f ab41 8667 1c41 d7d9 4441 3e50 7c41
00000060: 430e 4841 2b54 8141 0c7a c741 d722 5b41
00000070: 4546 b241 e174 be41 2139 d541 7f48 3042
12.231624 21.662931 37.059406 15.4804945 25.25411 32.29645 18.091276 52.802063
15.955289 20.878757 19.71711 20.654804 20.225286 24.904694 20.868074 23.413946
18.040983 23.398659 18.54889 28.678883 21.413923 9.775274 12.303184 15.76959
12.503482 16.166098 24.934593 13.696006 22.284311 23.80707 26.652895 44.070797

features.8.weight f4 [64, 32, 3, 3]
00000000: b04c 45be 8132 003e 6ec3 a53d f88c af3d
00000010: 3f5c 00bd d822 55bc e835 143e 1485 82bd
00000020: 09c6 2a3d 306f 7ebe 9a85 12be 5351 a8be
00000030: 2e97 513d 5cc6 aebd 8e4f 72be bcf3 023f
00000040: 7f59 913e 9bdc 28be 07fc 96be 7982 53be
00000050: 703a b2be 9d73 28be aaee 9bbe e1bb 64be
00000060: 530d b3be 02a9 aabe a4c0 05be 3500 d7bd
00000070: 4e62 27bf 55a6 fbbe cb42 64be b54d 02bf
00000080: ad6b e7be ebfa 183e 025e cf3d c47e e7bd
00000090: a4d5 793e 8eb2 523e cae5 02be a17b 413d
000000a0: d26a 1f3e 8ff2 88bd c606 78bd 6bb6 c23e
000000b0: 1945 18bd 541a 2a3e 669a 903e ba91 b73e
000000c0: 3735 d3be 6eb0 323e 4e55 943e 0d75 8abe
000000d0: 0399 b2bc 2617 5abd cc99 683b 6669 9abd
000000e0: 0759 2cbe ec02 db3d a881 4abe 220e 6ebe
000000f0: 1eb7 fb3d 2058 853d 13c4 013f bb6c a73e
00000100: 5ba2 c2be 1fbc 29bf a022 d03d 081c 19be
00000110: 9d02 59bd 58ed 78be a940 793e 81ba da3d
00000120: 1084 be3d 1e1e 39be 25f5 083f bfbf 403e
00000130: db31 ef3d 581d b43e c516 9b3c 84fa d0bd
00000140: 51d4 e6bd 4fe6 25bd 4773 6c3d 1d80 8abe
00000150: 976b 9abe 6f6d 96bd 6a18 56bd 3ca3 89bc
00000160: 0a2c 863c e1d6 ffbc 9fd8 12be 62ce 73bd
00000170: f0d0 973e d443 cf3d c56f 40be acec b13e
00000180: 3ffa 213d 1331 0fbe e924 69bf 4c68 b0be
00000190: d0e7 bfbe 4df2 5f3e 0334 b5bc 68f0 17be
000001a0: 8d5c 87bd b052 8abe a409 1bbf 00fd b43e
000001b0: f55d 20be 7120 5e3e e98d 093d 69ff f8be
000001c0: 2b81 533e 44e5 943d 4a7c 773d 9268 7ebe
000001d0: 6a6d 573d 0b35 923d 032f 18bf 41df ffbe
000001e0: 9acb 343d 5fe5 6dbe 3e17 dcbe a931 86be
000001f0: d3b4 783d 0c91 89bf d533 dabe a5fe a33e
00000200: 8872 fd3e 3c0b 863e 3d78 6c3d 49b2 a83c
00000210: 5847 63be 4810 fcbe fc7c adbe 0c0c 843d
00000220: 7b57 a53d 4109 fbbd 06c5 99be f180 063d
00000230: 76e5 9abc d4cb 803e 3cf9 be3e 0d21 cb3e
00000240: 2a26 c9be fd0f a13e ba49 863e 7d81 123e
00000250: fa84 17bd 0df8 63be b427 823e 0686 b0be
00000260: 9580 5d3d 8704 febd 1552 c13b 882e abbe
00000270: bbdf 42bf 9423 f9be 5d82 99be 6df1 0c3e
00000280: b5c7 38be c176 04bf ba73 023e 7fdc 0f3f
00000290: 5809 d13e 3db9 c13e a0ee 233d dbb2 1f3e
000002a0: b94a a03e db75 75be 11c8 b03e 5647 2abd
000002b0: 4e5d ebbe f542 0ebe 93ee 1f3f 86bd 13bc
000002c0: e028 dfbe 3e63 f8bd 25c4 54bc 26a7 babe
000002d0: 3965 bd3d 35eb 40be 2404 3e3c 4889 9bbe
000002e0: c2f6 48bd 90bc f43d e57e 2e3d 52b4 f43c
000002f0: 0935 af3d 5aa3 243e 720b c53e c1fd 0cbe
00000300: 764c 923d 5d3a 6bbe 5231 83be 49df 48bd
00000310: 92bf 073c db40 57be 224b a8be d987 133e
00000320: 3e51 233d 716f 5fbd ae7e eb3d 6eca edbd
00000330: b70a ec3c 3784 a03e 6577 ae3e 3d45 c1be
00000340: 9343 98be ba9f 0abf b22a 643d 0207 83bd
00000350: 9eb9 acbe 084e 19bd d9f9 cfbd d3e8 0dbe
00000360: b248 ed3e 4e2e 103f 7e9c 64ba e4c1 6abe
00000370: 3c5f 943e 2b04 cd3e 8581 a23d cb92 043f
00000380: 51e5 a93e 1ee7 d23d 90bc d63e a503 053f
00000390: 9161 153e fded 843e c1a2 0a3f 3bc9 56bd
000003a0: 5aa1 883d 0727 d6be 3f24 fdbe 7ef2 47bc
000003b0: d764 05bd 59da 78bd 8777 413e 3532 55be
000003c0: 5142 d73d 8990 483d 7a23 b1bd 5bc8 1c3f
000003d0: 43fd ec3e 1c1a 95be c4a8 f53d 785f 9c3d
000003e0: 0d4b 3abe 6bfa 1f3d 26e5 18be 72b2 71bd
000003f0: b3ed 1b3e e44a 63bd c06d fe3e 5397 6c3d
-0.19267535 0.12519266 0.08093916 0.085718095 -0.031337973 -0.013008796 0.14473689 -0.06373039
0.041692767 -0.24847102 -0.14308777 -0.32874545 0.051169567 -0.08533928 -0.2366316 0.5115316
0.28388593 -0.16490404 -0.29489157 -0.2065524 -0.3481021 -0.16450353 -0.30455524 -0.22337295
-0.34971103 -0.33332068 -0.13061768 -0.10498086 -0.65384376 -0.4915034 -0.22291104 -0.5089982
-0.45199338 0.14939468 0.101253524 -0.113034755 0.24397904 0.20575926 -0.1278297 0.047237042
0.15568092 -0.066868894 -0.060553335 0.380298 -0.03717527 0.16611606 0.28242797 0.35853368
-0.41251537 0.17450115 0.28971332 -0.27042428 -0.021801477 -0.053244732 0.003549206 -0.075396344
-0.16830836 0.10693917 -0.19776022 -0.23247579 0.12290786 0.06510949 0.5068981 0.32700142
-0.38014492 -0.66302675 0.10162854 -0.149521 -0.052981008 -0.2430929 0.24341072 0.10680104
0.09302533 -0.18077895 0.5349906 0.18823145 0.11679431 0.35178638 0.018931756 -0.10204032
-0.11270965 -0.040502843 0.057727125 -0.27050868 -0.3016021 -0.073450916 -0.052269377 -0.016801469
0.016378421 -0.031230392 -0.14340447 -0.059522994 0.29651594 0.10120359 -0.18792637 0.3475088
0.039545294 -0.13983564 -0.91071945 -0.34454572 -0.37481546 0.21869774 -0.022119528 -0.14837801
-0.066094495 -0.2701621 -0.60561585 0.35349274 -0.15660842 0.21692063 0.0335826 -0.48632362
0.20654742 0.072702914 0.060421266 -0.24844578 0.05259458 0.071390234 -0.59446734 -0.49975017
0.044139482 -0.2323203 -0.42986482 -0.26209763 0.060719322 -1.074739 -0.4261767 0.32030216
0.49501443 0.26180446 0.057731856 0.020592825 -0.22195184 -0.49231172 -0.33884418 0.0644761
0.08073326 -0.122576244 -0.3003313 0.03283781 -0.018908244 0.2515551 0.37299526 0.39673653
-0.3928693 0.3145751 0.26228124 0.14307208 -0.03699205 -0.22262593 0.25420916 -0.34477252
0.054077704 -0.12403207 0.0058996775 -0.33433938 -0.76122636 -0.48659956 -0.29982272 0.13763972
-0.18044932 -0.51743704 0.12739459 0.56195825 0.4082744 0.37836638 0.040022492 0.15595572
0.3130701 -0.2397074 0.3452764 -0.041571938 -0.45969623 -0.1389273 0.6247341 -0.009017354
-0.43585873 -0.12128304 -0.012986218 -0.3645565 0.09247822 -0.18839724 0.011597667 -0.30378175
-0.04906345 0.11950028 0.042601485 0.02987114 0.085550375 0.16077939 0.38485295 -0.13768674
0.0714349 -0.22971483 -0.25623566 -0.049041066 0.00828542 -0.21020834 -0.32869822 0.1440729
0.0398724 -0.05454964 0.114987716 -0.11610876 0.028813703 0.31350872 0.34075466 -0.37748137
-0.29739055 -0.54149973 0.05570478 -0.06397821 -0.33735365 -0.037427932 -0.101550765 -0.13858347
0.46344525 0.56320655 -0.0008720829 -0.22925526 0.28978908 0.40042242 0.0793486 0.5178649
0.33182767 0.10297988 0.41940737 0.51958686 0.14588 0.2596282 0.5415459 -0.052438002
0.066714 -0.4182665 -0.49441716 -0.012203811 -0.03256687 -0.060755108 0.18893252 -0.20819934
0.10510696 0.048965964 -0.08649345 0.6124322 0.46286973 -0.29121482 0.1199508 0.07635397
-0.18192692 0.039057177 -0.14931163 -0.05900807 0.15227394 -0.055491343 0.49693108 0.0577615

features.8.bias f4 [64]
00000000: d86c 96bd d77b 8cbd 52dc 153c 9591 9b3c
00000010: ad9e 903c 5f67 60bd 5e9f 79bd 5b74 44bd
00000020: 1c28 a73b 6b37 323c abe0 7c3b fa18 aebd
00000030: 065c 243d 0c05 fb3c cc7e f93c 2368 623d
00000040: 8943 b6bc 2c67 46bc 71b7 53bd d059 84bc
00000050: 94cc 3dbd 871d 9dbc 3758 4dbd 99c5 883d
00000060: c1dc aa3c 1d7e 063d a3a3 94bd 8cc7 3bbd
00000070: 5f84 76bc 6263 6b3d 64ff eabc b364 aabd
00000080: e302 9ebc 86ac 493d 7a7e ef3c 0ac3 a4bc
00000090: 6bc4 b43c 0469 d83c 3cfe 6f3d 218b c13c
000000a0: e35d 113d ab70 443c 0f3c 303d 1005 a4ba
000000b0: 2998 57bd 0936 6bbd fdd2 5abb 80ce 413c
000000c0: da39 4ebd 6f88 453d 0ad6 d7bc 572e 653d
000000d0: eab8 5ebc 6942 51bc 7e89 e1bc f0d3 9cbd
000000e0: 0cf0 63bd 3174 3f3d d5f2 0b3d 0f85 69bd
000000f0: 0ca6 08bd c146 14bd 0495 45bd b780 553c
-0.07344979 -0.06859558 0.009146767 0.018990317 0.017653788 -0.054786082 -0.060943 -0.047962528
0.005101217 0.0108774705 0.003858606 -0.08500858 0.040126823 0.030642055 0.03045597 0.055275094
-0.022249 -0.012109559 -0.051688615 -0.016156107 -0.04633768 -0.019179119 -0.050132956 0.06678314
0.020857217 0.032835115 -0.07257774 -0.0458446 -0.015046208 0.057467826 -0.028686233 -0.08319988
-0.019288486 0.049236797 0.029235113 -0.020112533 0.022066316 0.026417263 0.058592066 0.023625912
0.035489928 0.011989753 0.043026026 -0.0012513716 -0.052635346 -0.05742458 -0.003338992 0.011829019
-0.05034814 0.048225816 -0.026347179 0.055952396 -0.013593892 -0.012772181 -0.027531382 -0.07657611
-0.05564885 0.046741668 0.03416713 -0.05701166 -0.03336148 -0.03620029 -0.048237815 0.013031176

features.9.weight f4 [64]
00000000: 187d 833f d7c8 773f 0cb9 763f cd47 7c3f
00000010: 4d62 8a3f 0df7 553f da00 623f 6fe6 8d3f
00000020: 38f4 4e3f 0a01 6f3f 668c 8e3f 84f7 533f
00000030: 836a 763f 6ac3 813f 9bc1 5f3f 6c88 663f
00000040: f5b0 893f 00df 553f 6048 6b3f 78d6 713f
00000050: 3e17 6b3f b2fd 773f eeac 833f c9a1 9a3f
00000060: 6e31 523f c75f 9d3f 044b 733f bd1b 833f
00000070: 99d1 483f c336 5f3f fe7c 6a3f b4b4 763f
00000080: 31b9 783f 92c0 893f 861a 4f3f 24b6 903f
00000090: f9c9 6a3f 8b9e 753f ab2f 5c3f ff71 8f3f
000000a0: 421d 653f 3234 683f fe01 313f 2e82 723f
000000b0: 29d5 883f c8dc 4e3f 131d 7d3f a6fc 5f3f
000000c0: 33e9 553f 8098 643f 7fcb 803f 40df 6f3f
000000d0: b603 743f f60c 8b3f 0c24 5d3f 7af3 723f
000000e0: b92f 593f e5c8 713f 9b5c 903f 576a 703f
000000f0: 70a6 6d3f aaab 563f 382c 653f ea3f 853f
1.027255 0.9679083 0.9637611 0.9854706 1.0811249 0.83580095 0.8828255 1.1085948
0.808414 0.9336096 1.1136596 0.82799554 0.96256274 1.0137761 0.87404794 0.90051913
1.0757128 0.83543396 0.9190731 0.9446788 0.9183234 0.96871483 1.0287149 1.2080623
0.82106674 1.2294854 0.9503634 1.024284 0.7844482 0.87192935 0.9159697 0.9636948
0.9715758 1.0761893 0.80899847 1.1305585 0.91714436 0.9594504 0.86010236 1.1206664
0.8949777 0.90704644 0.69143665 0.9472989 1.0690051 0.80805635 0.9887249 0.87494886
0.8355896 0.89295197 1.0062102 0.9370003 0.9531816 1.086333 0.8638313 0.94902766
0.84838444 0.94447166 1.1278261 0.9391226 0.9283209 0.8385569 0.895206 1.041013

features.9.bias f4 [64]
00000000: 07a4 76bf f059 3dbf 6897 09bf aef1 6ebf
00000010: 9d6f 30bf b0b9 50bf aa64 02bf a2bf 37bf
00000020: 2b2e 2fbf d553 28bf a693 2bbf 708d 3bbf
00000030: 9e3b 46bf bd27 f3be 37c4 21bf f838 55bf
00000040: 518b 54bf e2f5 42bf f8f2 3fbf 9810 1cbf
00000050: 6675 4abf 9c87 3cbf 28cb 2cbf 2ec8 69bf
00000060: d462 33bf 9cf2 85bf 1b89 62bf f8b7 15bf
00000070: 726d 4fbf 4b22 2cbf da3d 49bf 9937 44bf
00000080: 90de 55bf e1d2 40bf e4b3 2bbf ca93 81bf
00000090: c8cf 21bf 3367 57bf 7811 17bf 830a 65bf
000000a0: 75fe 2dbf 26ec 7bbf 135f 39bf 8679 73bf
000000b0: 370e 58bf b89e 54bf b9f5 40bf b351 51bf
000000c0: 5f63 39bf ac93 58bf 3362 26bf 0342 30bf
000000d0: 8b8c 6cbf 78bf 43bf e3ef 1fbf 27d7 6abf
000000e0: a5f0 22bf 9a4f 61bf 4d24 44bf a89b 24bf
000000f0: c13a 54bf 574c 4cbf 398c 2abf a65c 28bf
-0.96344036 -0.7396536 -0.5374665 -0.93337524 -0.6892031 -0.81533337 -0.5093485 -0.71776783
-0.6842982 -0.6575292 -0.6702217 -0.7326269 -0.7743472 -0.47491255 -0.63190025 -0.8329005
-0.8302508 -0.7615644 -0.74980116 -0.6096282 -0.79085386 -0.73644423 -0.6749749 -0.91321075
-0.70072675 -1.0464664 -0.88490456 -0.5848384 -0.81026375 -0.67239827 -0.78610003 -0.76647335
-0.8354273 -0.75321776 -0.67071366 -1.0123227 -0.63207674 -0.84141845 -0.5901103 -0.89469165
-0.67966396 -0.9840721 -0.72410697 -0.95107305 -0.8439669 -0.83054686 -0.75374943 -0.8176529
-0.72417253 -0.8460033 -0.6499359 -0.68850726 -0.9240195 -0.76464033 -0.62475413 -0.91734546
-0.63648444 -0.8801209 -0.7661789 -0.6430001 -0.8290215 -0.79803985 -0.6662021 -0.6576637

features.9.running_mean f4 [64]
00000000: cb5b 79c0 8d52 98c0 4649 74c0 6ace 95c0
00000010: b48b 3b3f 6a27 d73f bcf6 abbf ef06 36c0
00000020: eeeb a8c0 4f6b 91c0 e91a 96c0 2e1f 05c0
00000030: ddef 0ac0 ee67 10c0 414d 3c40 78d7 d83f
00000040: 64df 26c0 912d 01bf 97df 88c0 8f99 663d
00000050: 7f2f 6ac0 f452 17c0 1845 57be 6026 4fc0
00000060: 5397 dcbf f872 afbf 8504 7cc0 979b 96c0
00000070: 7b77 23c0 764a b7c0 3f79 bdbf 708c 383e
00000080: f2df b2c0 029c 40bf 999e edbf 36c1 47c0
00000090: 90a9 92bf d2de b9bf 31d7 6cbf 698d bec0
000000a0: 9f2e dac0 9e3e 1cc0 76c1 e0bf c735 90be
000000b0: d153 f7bf 5132 b3c0 d56f dac0 d016 583d
000000c0: a8be 18bf 0995 29c0 c541 1dc0 63e8 06c0
000000d0: 3281 f0be a798 c0bf c874 90c0 743d 3fc0
000000e0: 6e4f 5fc0 1f8c 72c0 ac16 f13f 358d 78c0
000000f0: 7493 b7c0 5f32 7cbf f2c2 22c0 9dac 0bc0
-3.8962276 -4.760077 -3.8169723 -4.681447 0.73260045 1.6808903 -1.3434672 -2.8441732
-5.2788 -4.544349 -4.690785 -2.080028 -2.17089 -2.2563434 2.9422152 1.6940756
-2.6073847 -0.50460154 -4.2772937 0.05629879 -3.659149 -2.364438 -0.21022451 -3.2367172
-1.723368 -1.3706961 -3.9377759 -4.706493 -2.5541675 -5.7278395 -1.4802626 0.18022323
-5.589837 -0.7523805 -1.8564025 -3.1211677 -1.1457996 -1.4521124 -0.92515856 -5.954762
-6.818191 -2.4413218 -1.755904 -0.2816603 -1.9322454 -5.599892 -6.8261514 0.05275613
-0.5966592 -2.6497214 -2.4571393 -2.1079338 -0.46973568 -1.5046586 -4.5142555 -2.9881258
-3.489223 -3.7898023 1.8835044 -3.8836186 -5.7367496 -0.9851436 -2.5431485 -2.1824105

features.9.running_var f4 [64]
00000000: 9e9d 2d41 2797 8241 d037 9641 44b2 6c41
00000010: a79f 5041 a6ee 4541 4548 ac41 623f 8141
00000020: acce e841 cba9 a441 757e 7b41 d14e 5f41
00000030: 8010 8341 c7c5 2141 2968 ae41 c6da 7041
00000040: 5a24 2541 2160 ac41 0a75 8541 7d70 4e41
00000050: 4254 7141 d56b 5541 6aa5 6341 0d0f 8341
00000060: 6832 af41 dd10 a741 5f9e 3741 bc78 9341
00000070: fbe5 5641 809f 3941 c33e 7641 a970 5341
00000080: 7056 5541 80d4 7e41 7d86 9141 82b6 7641
00000090: 2833 5e41 d346 7141 e19c 6441 c8a4 a441
000000a0: 0c30 ab41 6333 5141 128c 3b41 35da 5941
000000b0: d46f 6341 05c9 5e41 93e1 8941 2dcf 6141
000000c0: 8965 4941 43e2 8541 9519 7141 7ad3 3d41
000000d0: 135d a241 085a 4b41 8562 9541 748c 5141
000000e0: e1c4 fb40 6b6c 5941 c4ff 4841 9568 bd41
000000f0: 3ac6 6c41 50cb 5141 4425 5041 22ab 9841
10.850981 16.323805 18.777252 14.793522 13.038978 12.370764 21.535288 16.155949
29.100914 20.582907 15.718373 13.956742 16.383057 10.1107855 21.80086 15.0534115
10.321375 21.546938 16.682148 12.902463 15.083071 13.338826 14.227884 16.382349
21.899612 20.883234 11.476165 18.433952 13.431148 11.60144 15.390323 13.215005
13.333603 15.92688 18.190668 15.419558 13.887489 15.079791 14.2883005 20.58046
21.39846 13.075046 11.721697 13.615773 14.214802 13.924077 17.235144 14.11308
12.587289 16.73548 15.068746 11.86413 20.295446 12.70948 18.673105 13.09679
7.867783 13.588969 12.562443 23.676065 14.798395 13.112137 13.009098 19.08356

classifier.1.weight f4 [128, 576]
00000000: 1194 213e 8da7 383d 917a 0f3f b296 523d
00000010: ce4c a13c 7d57 68bd 0730 4ebe 7c76 9ebe
00000020: 6e15 25be 328f a9be 39ad 20be 6335 4cbe
00000030: f9c4 653e 2e5f 8cbe 7aca 8cbe dad4 043e
00000040: c1f3 593e 1bd2 243e 86f2 463d 9b4c 98bd
00000050: 672f fabd 5294 f13d a4bf 6a3e e0c5 1d3e
00000060: 0c9f 0d3e 5acd 343e 68eb 863e 1d5e 113e
00000070: 4585 f0bd 87ac d1be 7ab1 00be 070d 8c3d
00000080: 14e4 9fbc 3581 3cbe 8191 22be 6265 c6be
00000090: 53d1 f73d 07e0 9c3d 7ed9 6fbe 603d 693e
000000a0: 1ae3 79bc 476a ff3c 291c b33e 3994 113e
000000b0: 3b0c ee3d 7526 2cbd 70d1 74bc 6f2b 83bd
000000c0: 907c 56be 1fe9 3a3e b10f 343e 0ce7 f2be
000000d0: 7e21 4ebe 4697 e33c 3e4e 01be 5221 60bd
000000e0: adad 54be ceeb 6ebe bac0 2ebe a5b4 05bf
000000f0: 4752 a0be 27eb 00be 6675 05bf 9dd2 d03d
00000100: 0392 b53c 5d13 943d f6dd b93e 0658 783e
00000110: 2fea fd3d fbf7 993d 2889 6d3e d07f a63e
00000120: 48a3 8dbe 6f33 923e 25b9 5cbc 78e5 0a3c
00000130: b3f3 ed3d 6c38 fdbd 1203 9bbe 8930 a2be
00000140: f707 d7be f86f 78be 6a27 f1be 659d c0be
00000150: aedd 82bd 842c 3b3e e4dd 07be 4125 04be
00000160: accd 993e 0464 a73e 1a5c 8dbd f050 aebd
00000170: 5aaf 9bbe 1ea3 87be 4f28 73bd 9d4b e4bc
00000180: 1732 0e3d cfc0 bbbd c335 4f3e 2f37 6abe
00000190: d967 78be f181 5f3c c12d 0dbe dae0 cb3d
000001a0: 16df 00be b270 d6bd aa21 8ebc df49 12be
000001b0: e82c 2abe 5419 423c 60bb 9bbe 3739 f13e
000001c0: 87ab f43d 3c45 2f3d 4e8b 393e 7a4b d23e
000001d0: 91d8 f33d 7ae5 57bc 5874 a1be f75a 383d
000001e0: 0fcc 8d3d 000a 943e 7cd4 8f3e 4663 233e
000001f0: 3c0c db3e cc24 c33e 12f4 c3bd 8373 5b3e
00000200: ba06 543e 1c2d 1abe 8aff 37be 9373 6ebc
00000210: 9bea 0abf 2a6e 2dbf eaa1 dfbe 1c32 223d
00000220: 7032 ccbe a4b9 eebe 3f6e 973e d52d 82bc
00000230: 8c18 043e 405b 0b3f 3779 113e e6e3 2f3e
00000240: bafa 1c3d c511 8c3e a387 6e3e 8d19 05bf
00000250: f94d e6bd 7395 33be 5cbf 0cbf d6f4 19bf
00000260: 81f4 67bd f986 aa3c 59af 76be 73c9 f43d
00000270: 3aee 21be c272 6b3e a2c1 a6be 416e ddbd
00000280: 7abc 87be c65d 24be 1e1e 75be ca8d fabe
00000290: f00e 183d 5288 88be f2e0 98bd 1250 34be
000002a0: c480 013e 7c08 953d a077 953d 51cb 233e
000002b0: dedb 0bbe cbd5 843e ce21 213f d1c5 6f3d
000002c0: 70f3 8e39 97d1 033e bf61 733e e0a2 0a3e
000002d0: 298a bbbe 7033 dcbe 62c2 36be cc62 cbbe
000002e0: 3fce 26be 6c3a de3d 1f43 0f3e 34ac 39be
000002f0: 778c 60bc 7b25 8b3e a08b 763e a144 de3e
00000300: 61e7 723e 4955 383c dc89 e7bb d79e ea3e
00000310: 54d1 483e f841 a93d 8d07 103a cdc2 00be
00000320: 9d3f 0d3e c85c 693e 4cc7 213c 747f 013e
00000330: 7b10 aa3e 4e70 d43e 2eb3 853e 309e fe3e
00000340: 2d72 5e3e 961e ac3d 852a 11be 4436 e1bb
00000350: 1e13 d8bd 9a84 54bd 75d6 e2bd dc3c e4be
00000360: a227 bbbe ee27 febe ea95 e6be 6fa9 a3ba
00000370: 3c76 24be 63e3 debc 4d59 683c 8e9e 9cbe
00000380: f543 293d 55df 583d f804 6ebe 0e6e a53c
00000390: 8d21 fb3d 102a 49be 8a6b bebd 8d75 e73e
000003a0: a282 b63e 9944 683e 06ce 623e 1ac9 19be
000003b0: ef1c 1dbe 710a 87be 179f 82bc 1d55 14bd
000003c0: 0596 66be 4e22 4abe 547c 353b cac3 86be
000003d0: 58d4 fcbd 9169 bcbe 29ad 0dbf 3a4d d2be
000003e0: cc7c 8bbe 3b37 eebe 9738 103e 1fe2 89be
000003f0: c52b f1be b638 43bd d711 63bd e432 593d
0.15779139 0.045081664 0.56046396 0.051413245 0.019689944 -0.05672406 -0.20135508 -0.3094977
-0.16121456 -0.33117062 -0.15691079 -0.1994224 0.2243842 -0.27416366 -0.27498227 0.12971821
0.21284391 0.16095774 0.048571132 -0.07436486 -0.122160725 0.11795868 0.22924668 0.15407515
0.13830203 0.1765646 0.26351476 0.14196058 -0.11744169 -0.4095194 -0.12567702 0.06838422
-0.019517936 -0.18408664 -0.15875818 -0.38749224 0.12100472 0.07659917 -0.2342281 0.22777319
-0.015251899 0.031178607 0.34982422 0.14216699 0.116234265 -0.042028863 -0.014942512 -0.06404769
-0.20945954 0.18252991 0.17584111 -0.474419 -0.20129964 0.027782094 -0.12627503 -0.054719277
-0.20769377 -0.2333214 -0.17065707 -0.52228767 -0.31312773 -0.12589704 -0.5213226 0.10196421
0.02216435 0.07230256 0.36302155 0.24252328 0.123981826 0.07518002 0.23196852 0.32519388
-0.27663636 0.28554866 -0.013471876 0.008477561 0.116187476 -0.12364277 -0.3027578 -0.31677654
-0.41998264 -0.24261463 -0.47100383 -0.37620082 -0.06389938 0.182787 -0.13268238 -0.12904836
0.30039728 0.32693493 -0.069023326 -0.08511531 -0.3040722 -0.26491636 -0.059364613 -0.027868086
0.03471574 -0.09167635 0.20235352 -0.22872613 -0.24258365 0.01364182 -0.13786985 0.099549964
-0.125851 -0.10470714 -0.017350037 -0.14285992 -0.16618693 0.011846859 -0.30416393 0.47113964
0.11946779 0.042790636 0.18119547 0.4107321 0.11906541 -0.01317727 -0.31534076 0.045008626
0.06923687 0.2891388 0.280918 0.15955839 0.42782772 0.3811401 -0.09568037 0.21430783
0.20705691 -0.1505627 -0.17968574 -0.014553922 -0.5426423 -0.6774622 -0.43678218 0.03959857
-0.3988223 -0.46626008 0.295763 -0.015890995 0.12899989 0.5443611 0.14206396 0.1717678
0.03832505 0.27357307 0.23293929 -0.5199211 -0.11245341 -0.17537479 -0.5497949 -0.60139215
-0.05662966 0.020816313 -0.24090327 0.11952486 -0.15813532 0.22992995 -0.32569605 -0.10812045
-0.26510984 -0.16051397 -0.2393727 -0.489363 0.03712362 -0.26666504 -0.0746478 -0.1760867
0.12646776 0.07277009 0.07298207 0.15995528 -0.13658091 0.2594436 0.62942207 0.05853826
0.00027265726 0.12872921 0.23767756 0.13538694 -0.36628845 -0.43007994 -0.17847589 -0.39723814
-0.16289614 0.10850987 0.13990448 -0.18132097 -0.013705364 0.27177033 0.240767 0.43411735
0.23721077 0.011250802 -0.0070659947 0.4582431 0.19611102 0.08264536 0.0005494289 -0.1257431
0.13793798 0.227893 0.009874176 0.12646276 0.332157 0.41491932 0.26113266 0.49730062
0.21723242 0.08404271 -0.14176376 -0.006872924 -0.10550521 -0.05188427 -0.11076061 -0.44577682
-0.36553675 -0.4963984 -0.4503625 -0.0012486408 -0.16060728 -0.027208036 0.014181447 -0.30589718
0.041324575 0.05294736 -0.23244083 0.02019408 0.12262259 -0.19644952 -0.09297855 0.45206872
0.3564654 0.22682418 0.22148904 -0.1501812 -0.15343069 -0.26375154 -0.015945 -0.036213983
-0.22518165 -0.19739649 0.0027692514 -0.2632125 -0.12345189 -0.3679929 -0.55342346 -0.41074544
-0.2724365 -0.46526513 0.14084087 -0.2693033 -0.47103706 -0.047661506 -0.055436935 0.05302705

classifier.1.bias f4 [128]
00000000: cf49 04be 72b8 aabd a09c ebbb e380 8cbd
00000010: 750e 323c 030d 99be e44f 5bbd 7e5e c43d
00000020: 08e2 a43c ec59 25bd 0a59 82bc 1531 073d
00000030: a60a 83bd 5c5f 7bbe f142 3dbe b7d5 1ebd
00000040: 5301 1ebe 9fa4 45bd d11b 7a3d 0b8d 47bd
00000050: 97d4 e4bd 0805 8239 8811 a1be df19 afbd
00000060: 8738 90be a507 b0bc a34a 45bd 0fa2 f23d
00000070: 2062 a6be 7e0f 033e 2645 3fbc 4ade 9cbd
00000080: ad5e fa3c 0ba3 05bc 38de e1bd a279 02be
00000090: 6235 58bd 6d91 a93c 14fb 71be fcca e13d
000000a0: 28ee 5cbc 3175 bcbd 174e 7a3d 9a76 4bbd
000000b0: c120 fd3a 2fff 183e 3d79 23be 6d76 523e
000000c0: a277 853d 0702 cdbc 8d2f ee3d 0fe2 bfbd
000000d0: 2051 dabe fb4c 57bd de73 7ebe e8fb 81bd
000000e0: d1e3 ac3c f6f6 ba3c 3e2e b6bd 34a4 97bc
000000f0: 0e3f 27be fe34 5d3c 90ec 56bc c726 0ebd
00000100: 45af 89be 4d38 c0bd 630b 613c ed61 d5bb
00000110: 4225 ad3c c082 45be 5826 babc 98a8 a8bc
00000120: 8d8a f6bb fa66 8bbd 84f3 f7bb 68d5 483b
00000130: fece f53d 7aa3 32bd ea4d 10be beca 593e
00000140: 045e 29be bf7d 193e 97a9 40bd 3afd 523d
00000150: cca2 1bbe 8989 25be 45c9 15be 647b a1bc
00000160: 2aa9 09be 72c3 37bd e11e aabe 2d55 94be
00000170: 5476 56bd 64dc b4bd a400 12bd 0a1a 633e
00000180: 63a0 bdbc f351 d3bc dbdb ef3d 9a1e dfbd
00000190: a053 c9bd 161a 53bd c886 c4bc a8c4 28bd
000001a0: f1e3 dfbd f10a c9bc 31d4 9d3d 98fe e13c
000001b0: b6a0 bc3d 5c04 a63a d58e 613c b73a 8a3c
000001c0: b4fa 73be b368 c5be 848e 263c 883c 0bbe
000001d0: 7f91 1fbe b91c b43d 9616 95be 9f35 1bbe
000001e0: 9508 6bbe 8ecd f63c 999a 2fbe d931 3cbd
000001f0: c2dd 3dbc 3453 f5bb 4e6b 753e c131 cebd
-0.1291878 -0.083359614 -0.007190302 -0.06860521 0.010867705 -0.2989274 -0.053542987 0.095883355
0.020127311 -0.04036896 -0.015911598 0.033005793 -0.063985154 -0.24548095 -0.18482567 -0.038778033
-0.15430193 -0.048252698 0.061061684 -0.048718493 -0.11173361 0.0002479928 -0.31458688 -0.085498564
-0.28168127 -0.02148802 -0.048166882 0.118473165 -0.32496738 0.12798879 -0.011674201 -0.07659586
0.030562723 -0.008156548 -0.11028713 -0.12741712 -0.052785285 0.020699227 -0.23630935 0.11025044
-0.013484515 -0.0920204 0.06110963 -0.049673654 0.001931213 0.14941095 -0.15964217 0.20552988
0.06516959 -0.02502538 0.11630163 -0.09369289 -0.42640018 -0.05256365 -0.24848887 -0.063468754
0.021104725 0.022822838 -0.08895539 -0.018510915 -0.16332647 0.013501404 -0.013117924 -0.03470495
-0.26891533 -0.093857385 0.013735625 -0.006511918 0.02113593 -0.19288158 -0.022723362 -0.020588204
-0.0075238408 -0.068067506 -0.007566871 0.0030644778 0.12002371 -0.043612935 -0.14092222 0.21268746
-0.1653977 0.14989375 -0.047036733 0.051511027 -0.15198821 -0.16165747 -0.1462756 -0.019712158
-0.13443437 -0.044864126 -0.33226684 -0.28971234 -0.05235894 -0.08831099 -0.035645142 0.22177902
-0.023147767 -0.025795912 0.11711856 -0.10894509 -0.09830403 -0.05153855 -0.02399005 -0.04120317
-0.10932148 -0.02454135 0.07706488 0.02758722 0.09210341 0.0012666094 0.013766964 0.0168737
-0.23826104 -0.38556442 0.010165814 -0.1359731 -0.15582846 0.08794541 -0.29118794 -0.15157174
-0.22952493 0.030127313 -0.17148818 -0.045945976 -0.011588516 -0.007486725 0.23966715 -0.100680836

classifier.4.weight f4 [11, 128]
00000000: e4e5 3abd 4b3e b03e 28cb 403c 852a 2ebe
00000010: fc77 16bd 4f85 78be 4d20 babd f1b8 f53d
00000020: 93cd 533e 580f 8cbe f8dc a7bb 8e1d dabe
00000030: 71a4 a6be ca24 63be ba47 61be 3bd5 9b3e
00000040: bb79 f3be be41 4bbd c653 71be 7ae9 4e3d
00000050: 9b56 b63e 1e29 9abd f13f f8be 504e 9bbe
00000060: a004 c6bb 9e00 053c 6ff1 71bd c375 11bf
00000070: 4100 25bf 5cff 02bf 6588 5d3d 81f1 3d3e
00000080: 6c0d 4e3e 2413 c93b 33e9 ad3e 85ff bcbe
00000090: 3830 f0bd 95cf 133d 3933 923d ff88 243e
000000a0: 1a22 91bc ef34 60be d951 93be b82c 8a3b
000000b0: 17ed d83d 660e 803e fb27 bdbe f5ec 223e
000000c0: 90a3 663e 2055 f6bc 1bf4 f43c 31ba 493c
000000d0: 71cb 12bf 870b a1be c780 f7be 3097 473d
000000e0: 1f9d 643d 6dc7 b4bd ea06 c2be 32e3 95bc
000000f0: 2f0e b3be 6298 a0be a22c 08bf 081f 22bd
00000100: 88bd ec3c c077 0abe 7280 373d cd30 a8be
00000110: 0f61 b6bc b3a7 d0be eb85 b6be cb00 5abc
00000120: 5cab 993c 7000 18be 0b45 7ebd f903 e03d
00000130: d64e edbe 5a94 5abd 9d38 18be 4acf d3be
00000140: 2c21 c9be 9255 8fbe 8ae3 30be d364 86bd
00000150: 4a91 5cbe d369 1ebf 0622 453e 4dfb 92bd
00000160: 65e2 51be 3382 9bbe 11d7 0cbf dc6c 66be
00000170: 90f6 4bbe 06a0 fdbe da82 663d 960c c53d
00000180: 7163 7fbc 31e1 f4be 96c8 25bf 89a0 a8be
00000190: 9b0d 32be 5398 67be 4cc7 babe b87b 50bc
000001a0: 1b3c 933e abca aabc 151f 813e 03ed b63e
000001b0: e8b8 483e a20b 78bb a86b 7c3d c10f 8a3d
000001c0: 9f84 103e 5a14 bf3e 8718 44be 0272 203e
000001d0: f9a7 053e 40bb 613d 5f45 d1be 525d 71be
000001e0: d10a 513e 4142 583e b189 033f 2fee 5b3d
000001f0: 93fd 31bb 260d 403c bd1e 06be 33e5 3ebd
00000200: ebfa cabe b3ab 2cbf 9caa 0abb bba4 c83e
00000210: f1c1 e3bc 33a6 4c3e 6193 15bd 4be2 f93d
00000220: 2b75 a13d 444f c9be 0159 34bc 8a90 9c3e
00000230: 2155 3ebf 9463 efbe 7060 0abf 4378 823e
00000240: b6e9 373c bfc4 c73c 6aad babe aae1 9ebd
00000250: f42e 24bf cfa8 4bbc 0187 1ebf d4a2 12bf
00000260: 889f 3ebf d8fa 6abd 4f0d 8c3c cafe fc3d
00000270: 79c7 89bf 0fec e5be 2f07 9c3d 396d 56bf
00000280: 6891 283e 8056 a2b8 f4c1 f6be 4235 793e
00000290: 87cd 573d 52c5 863d 6564 28bd 61f8 15bf
000002a0: cede b0be 2a76 29bf 8f35 4e3e 2422 ebbc
000002b0: 1dca 5c3e 8b66 32bf 3e39 bebe ae41 153e
000002c0: e50f 5a3e 65f3 023c f181 58bf a040 9abc
000002d0: edd0 94bf 8424 8bbd 7596 8ebe bdcd 503d
000002e0: a625 283d a864 fcbc 6f28 803e 2b62 6dbd
000002f0: 0af0 093e ce16 fabe 9784 66bf ae72 b93d
00000300: b30f 1dbf 3ac0 5fbf 30de 6dbf 4b45 a4bd
00000310: 43f8 9b39 2766 a2be 9334 eebe b6d0 6a3d
00000320: 16d8 263d 0a8c 553d 3a32 29bd 9dbf 2dbc
00000330: 3489 323e 6941 4abd b50c 8c3d a455 c03e
00000340: 44d4 e2be a739 0a3e 12bc 16bf fc82 03be
00000350: 871f f5be b033 c83d 314f 0cbf 4138 813d
00000360: 1cdf 05bf 6ba2 863e 87a5 7ebf 7eaf 4f3e
00000370: 269b a83e fafa 3bbf 6b8e c1bc 1284 143e
00000380: d6f9 84bd dc78 38bf 6c5b 643e 5b80 eebe
00000390: b9b6 2b3d a94a 1cbf 2b37 2cbf cb64 6a3d
000003a0: 3693 25bf c874 2bbd 4539 953e 69da c63d
000003b0: 9a43 10bf 577a 403d 6074 c8bd 5655 8abd
000003c0: c4cc f6be 4640 08bf 30bf 0a3e a71e 1b3e
000003d0: 323c 40bf 2549 113e a0b6 85be ec77 7c3e
000003e0: b736 2cbf 72ae 8dbe d07a 92be ceb0 01bc
000003f0: e19c fbbd baec 203d abb1 0fbe f757 3f3d
-0.045629397 0.34422526 0.011767186 -0.17008407 -0.03673552 -0.24269603 -0.09088192 0.119981654
0.20683889 -0.27355456 -0.005122777 -0.42600673 -0.32547334 -0.22182003 -0.22000018 0.3043612
-0.4755381 -0.049623244 -0.23567113 0.05051563 0.3561295 -0.07527374 -0.48486283 -0.30333185
-0.006043032 0.008117823 -0.05906814 -0.56820315 -0.6445351 -0.511709 0.054085154 0.18549158
0.20122308 0.006136315 0.3396698 -0.36913696 -0.11727947 0.036086638 0.07138676 0.16067885
-0.017716456 -0.21895193 -0.28773382 0.0042167567 0.10592096 0.25010985 -0.36944565 0.15910704
0.22523332 -0.030069888 0.029901555 0.012312458 -0.57341677 -0.31454107 -0.48340437 0.048728168
0.055813905 -0.088271 -0.378959 -0.018296812 -0.3497176 -0.3136626 -0.53193104 -0.039580375
0.02889897 -0.13522243 0.04480023 -0.32849732 -0.022263078 -0.40752944 -0.35649046 -0.013305853
0.018758468 -0.14843917 -0.062077563 0.10938258 -0.4634921 -0.053364135 -0.14865346 -0.41369087
-0.3928312 -0.27994972 -0.172743 -0.065621994 -0.21539798 -0.61880225 0.1925126 -0.07176838
-0.20496519 -0.30372772 -0.55015665 -0.22502464 -0.19918275 -0.4953615 0.056277134 0.09621541
-0.0155876735 -0.47828057 -0.64759195 -0.3293498 -0.17388003 -0.22616701 -0.36480176 -0.012724809
0.28756794 -0.020848593 0.25219026 0.357277 0.19601786 -0.003784873 0.061626107 0.06741286
0.14113091 0.37320215 -0.19149981 0.1566849 0.13052358 0.055110216 -0.40873238 -0.23570755
0.20414282 0.21119024 0.51381975 0.053693946 -0.0027159199 0.011721885 -0.13097663 -0.0466053
-0.3964456 -0.6744949 -0.002115882 0.3918818 -0.02780244 0.19985275 -0.036517505 0.12201365
0.07883676 -0.39318287 -0.011007548 0.30579025 -0.74348646 -0.4675566 -0.540534 0.25482377
0.011225155 0.024385808 -0.3646043 -0.07757886 -0.64134145 -0.012430384 -0.6192475 -0.57279706
-0.74462175 -0.05736813 0.01709619 0.12353285 -1.0763999 -0.4490666 0.07618558 -0.8376041
0.16461718 -7.740874e-05 -0.4819485 0.24336722 0.05268624 0.065806046 -0.04111137 -0.5858212
-0.34544986 -0.6619593 0.20137618 -0.028702803 0.21561475 -0.6968772 -0.37153047 0.14575836
0.21295126 0.0079926 -0.84573275 -0.018829644 -1.1626259 -0.06794074 -0.27849165 0.050977457
0.04105153 -0.030809715 0.25030848 -0.05795495 0.13470474 -0.48845524 -0.90046066 0.090550765
-0.6135208 -0.8740269 -0.92917156 -0.08021029 0.00029748873 -0.3171856 -0.46524486 0.05732795
0.04073342 0.052135505 -0.041307665 -0.010604766 0.17435151 -0.049378786 0.06838361 0.3756534
-0.4430257 0.13498555 -0.5888072 -0.12842935 -0.47875616 0.097754836 -0.54808336 0.06309558
-0.5229356 0.2629579 -0.99471325 0.20281789 0.3293087 -0.73429835 -0.02362748 0.14503506
-0.06492965 -0.72059417 0.223005 -0.46582302 0.041922305 -0.6105142 -0.6727168 0.05722503
-0.6467775 -0.04185942 0.29145256 0.09709627 -0.5635315 0.046991672 -0.09787822 -0.06754558
-0.482031 -0.53223073 0.13549495 0.15148412 -0.7509185 0.14188059 -0.26115894 0.24655122
-0.6727099 -0.27672154 -0.28609324 -0.007915689 -0.12285782 0.03928826 -0.14032619 0.04671475

classifier.4.bias f4 [11]
00000000: 1c8a 1a3e f2e1 663f 0596 6a3e bb3b 5fbf
00000010: 03b3 a93e c46b 843e 4b12 37bf 79b2 85bf
00000020: f967 8cbf 4191 913e 6778 13be
0.15091747 0.90188515 0.2290879 -0.87200516 0.33144388 0.2586347 -0.7151229 -1.044509
-1.096923 0.28431132 -0.14401399
