Assignment 2/best_model_final.pth (torch, 817327 bytes, 22 tensors)

features.0.weight f4 [16, 1, 7, 7]
0	0x3dc81265	0.097691335
1	0x3dd3b60e	0.103374586
2	0xbd7b3e05	-0.061338443
3	0xbd2fc038	-0.042907923
4	0xbd062a14	-0.032754973
5	0xbdf57b96	-0.11986463
6	0x3de9e290	0.114201665
7	0xbd8431aa	-0.06454785
8	0xbde34adf	-0.11098265
9	0x3c96b378	0.018396124
10	0xbe1d3824	-0.15353447
11	0xbdc4abe6	-0.096030995
12	0xbe1356f1	-0.14388634
13	0x3ce790e0	0.028267324
14	0x3d79448e	0.060856394
15	0xbd13359c	-0.035939798
16	0xbd98614a	-0.074404314
17	0xbe00fed5	-0.1259721
18	0xbdffadcc	-0.12484321
19	0xbd0b60a1	-0.0340277
20	0xbe003cff	-0.12523268
21	0x3dc5c124	0.09655979
22	0xbdf05fa0	-0.11736989
23	0xbcf16259	-0.029465841
24	0xbdaff1e1	-0.085910566
25	0x3d910c45	0.07082418
26	0xbdcee071	-0.101014026
27	0x3d4d9f87	0.050200965
28	0x3c74f3b7	0.014950684
29	0x3da4925e	0.0803573
30	0x3d630cc7	0.055432107
31	0xbdc2dacd	-0.09514389
32	0x3c720771	0.014772282
33	0xbcc40234	-0.023926832
34	0x3e089690	0.13338685
35	0xbdc36251	-0.09540237
36	0x3e09394b	0.13400762
37	0x3ddfe73a	0.10932775
38	0xbd4dacbc	-0.05021356
39	0xbda447db	-0.08021518
40	0x3dc625dc	0.0967519
41	0xbc921023	-0.01782996
42	0x3dca2531	0.09870375
43	0xbd221b00	-0.03957653
44	0x3dbfee1a	0.09371586
45	0x3d373911	0.044732157
46	0x3d024a06	0.031808876
47	0x3d8a42c8	0.06751019
48	0xbdfd1fc0	-0.123595715
49	0x3d067d67	0.032834437
50	0xbd856b55	-0.065146126
51	0x3de08a72	0.10963906
52	0x3e1aab36	0.15104374
53	0xbdcc7450	-0.09983122
54	0x3de02604	0.10944751
55	0x3dabde99	0.083920665
56	0xbd53bc46	-0.051693223
57	0xbd2fb79d	-0.042899717
58	0x3e0974d1	0.13423468
59	0x3bd7fa45	0.0065911137
60	0x3d92a40a	0.07160194
61	0xbd33fcf5	-0.04394241
62	0xbd84f796	-0.06492536
63	0x3df5cc5e	0.120018706
64	0xbdc83a9d	-0.097768046
65	0xbcea4e06	-0.028601658
66	0x3e35a11e	0.17737243
67	0x3e142e80	0.14470863
68	0x3e0efe2a	0.13964143
69	0xbcb2705b	-0.02178209
70	0xbb98fbf1	-0.0046687056
71	0x3de41dff	0.11138534
72	0xbda51e5a	-0.0806243
73	0x3d0dbf20	0.0346061
74	0xbd16aeb3	-0.0367877
75	0xbe11f08e	-0.1425192
76	0xbd32efc4	-0.04368569
77	0xbc806d70	-0.015677184
78	0x3d9894b0	0.07450235
79	0xbdea1ed8	-0.11431664
80	0xbd0535ba	-0.03252194
81	0xbe100372	-0.14063814
82	0xbdf136eb	-0.11778053
83	0xbcde8305	-0.027162084
84	0x3c53fbf8	0.012938492
85	0xbcf07e3f	-0.029357074
86	0xbcf212cb	-0.029549977
87	0xbe5adb03	-0.21372609
88	0xbe18943d	-0.14900298
89	0x3da30f72	0.0796193
90	0x3d59670e	0.053076796
91	0xbcad476e	-0.021152224
92	0xbdb268c7	-0.08711391
93	0xbe144696	-0.14480051
94	0x3d31a38c	0.04336886
95	0x3d950cdd	0.07277844
96	0x3c8185f5	0.015810946
97	0xbd0df05f	-0.034653064
98	0x3e106716	0.14101824
99	0xbd9f42d0	-0.07776415
100	0xbdfbd784	-0.12296966
101	0x3d8c093a	0.06837697
102	0xbd1233e6	-0.035694025
103	0x3d812885	0.063065566
104	0xbd157b2e	-0.036494426
105	0x3e125d04	0.14293295
106	0x3e13a1df	0.14417218
107	0x3d2102e6	0.039309405
108	0xbdc66dc3	-0.09688904
109	0x3ddfcae8	0.10927373
110	0x3ddb2f44	0.107023746
111	0x3e05a476	0.13051018
112	0x3db09708	0.08622557
113	0x3de5227c	0.11188218
114	0x3dfd1bd1	0.12358821
115	0xbd9f66ac	-0.07783255
116	0x3dc9b2b2	0.098485366
117	0xbddd987b	-0.10820099
118	0x3db409bf	0.087909214
119	0xbc3ecde8	-0.011645772
120	0xbb645b68	-0.0034844521
121	0xbd35ebc9	-0.044414315
122	0x3c29ab42	0.010355772
123	0xbdc3bd62	-0.09557606
124	0x3db96134	0.09051743
125	0x3d453d5a	0.048154213
126	0xbd5cf57e	-0.053945057
127	0xbd6185f8	-0.055059403
128	0xbd9d5501	-0.07682229
129	0x3d8dc4c3	0.06922295
130	0x3e07a88f	0.13247894
131	0xbdbdc1ea	-0.09265502
132	0xbcb65baf	-0.022260515
133	0x3dba7967	0.09105187
134	0x3df1fb66	0.118155286
135	0x3d51bfe8	0.051208407
136	0x3c35744d	0.011075092
137	0x3e136b24	0.1439634
138	0x3da185cf	0.0788685
139	0x3b918654	0.004441062
140	0x3df8e700	0.12153435
141	0x3dd705af	0.10499131
142	0x3db6b54b	0.08921298
143	0x3d8903c4	0.06690171
144	0x3d8dd8a5	0.06926087
145	0x3d84eadf	0.064901106
146	0xbc07d99a	-0.008291626
147	0xbc43fa99	-0.011961603
148	0x3b5c3498	0.0033600684
149	0x3d9efbdc	0.07762882
150	0x3d8c6c91	0.06856645
151	0x3dba5d32	0.09099807
152	0x3dff3457	0.12461155
153	0x3cdcdc47	0.026960505
154	0x3ca5ff58	0.020263359
155	0x3dd1c0f2	0.102418795
156	0x3d0f5278	0.034990758
157	0x3d750583	0.05981971
158	0xbd4dbe1e	-0.050230138
159	0x3ceb9ae5	0.028760383
160	0x3c6d4983	0.014482859
161	0xbdea333c	-0.114355534
162	0xbe2850ea	-0.16437116
163	0xbe283fe2	-0.1643062
164	0xbd9f9fac	-0.07794127
165	0x3cb9d29c	0.022683434
166	0xbdb62323	-0.088934205
167	0xbda2f854	-0.07957521
168	0xbd8846ff	-0.066541664
169	0xbccd39f7	-0.025052054
170	0xbd1f0539	-0.03882334
171	0xbe1ebca5	-0.1550165
172	0xbe272fdf	-0.16326855
173	0xbd2d71cf	-0.042344864
174	0xbd38d540	-0.045125246
175	0x3d6c3a2b	0.05767266
176	0x3e0d018e	0.13770124
177	0x3e1cf186	0.15326509
178	0x3db5787d	0.08860872
179	0x3e19d18a	0.15021339
180	0x3d2aea52	0.04172737
181	0xbd0e2f31	-0.034712974
182	0xbcec2c23	-0.02882964
183	0xbd4cc953	-0.049996685
184	0xbd07b6b9	-0.033133242
185	0xbbf381f0	-0.0074312612
186	0x3b199635	0.0023435478
187	0x3d77bb8c	0.060481593
188	0xbd3c5563	-0.04597987
189	0x3cf4e64d	0.029894972
190	0x3d3e6b3c	0.046488985
191	0xbd4e437f	-0.050357338
192	0xbd436c4c	-0.0477107
193	0x3d6a594d	0.05721407
194	0x3c71ada5	0.014750873
195	0x3d9d3858	0.07676762
196	0xbd3a93bd	-0.04555105
197	0x3cf5fa24	0.030026503
198	0x3da14a1a	0.07875462
199	0x3d84370c	0.06455812
200	0xbe294c7d	-0.16533084
201	0x3d74bda8	0.059751183
202	0xbe170d96	-0.14751276
203	0xbda2cb86	-0.07948975
204	0x3dbc87ac	0.09205565
205	0x3de4cad4	0.11171499
206	0x3de5545b	0.1119773
207	0xbd0bf8e7	-0.03417292
208	0x3cad816e	0.021179881
209	0xbcb37bd2	-0.021909628
210	0x3de11e89	0.10992152
211	0x3de81235	0.11331598
212	0xbdc8762e	-0.09788166
213	0x3dc49d18	0.09600276
214	0xbda214ab	-0.07914098
215	0xbd02efa2	-0.031966813
216	0x3b959f1a	0.0045660855
217	0x3d84873b	0.06471106
218	0x3dbc63e9	0.09198744
219	0x3e088aa8	0.13334143
220	0x3c5a724a	0.013332913
221	0x3dc8aafc	0.09798238
222	0x3d707eb2	0.058714576
223	0x3cea43f8	0.028596863
224	0xbcc029f9	-0.023457514
225	0x3df097a3	0.117476724
226	0xbde3b482	-0.111184135
227	0x3d6848fc	0.05671023
228	0xbe0f1f60	-0.13976812
229	0xbdb65c5b	-0.08904334
230	0x3c41bf31	0.011825369
231	0x3a63b08b	0.000868567
232	0x3d271377	0.040790047
233	0x3e03eef9	0.1288413
234	0xbde226dc	-0.11042568
235	0x3d0a716f	0.033799585
236	0xbb2ab4c5	-0.0026047688
237	0x3d3bd5f1	0.045858327
238	0x3dd9b88e	0.10630904
239	0xbce68631	-0.02814016
240	0x3cfbb644	0.03072656
241	0x3d2faec6	0.042891286
242	0xbca147b1	-0.019687505
243	0xbda600fd	-0.08105657
244	0x3defb7ca	0.11704977
245	0xbceab10c	-0.028648876
246	0xbbb4a7af	-0.0055131535
247	0xbda6aa58	-0.08137959
248	0xbc21a0b0	-0.009864971
249	0x3d22e0b0	0.03976506
250	0xbda4414d	-0.08020268
251	0x3d7eaf98	0.062179178
252	0x3da673b8	0.0812754
253	0xbd0e8cec	-0.034802362
254	0xbdfde79e	-0.12397693
255	0x3dbfab1a	0.09358807

features.0.bias f4 [16]
0	0xbe04825e	-0.12940356
1	0x3db15a4c	0.08659801
2	0xbde29303	-0.110631965
3	0x3dba9b71	0.09111679
4	0x3ce00db8	0.027350292
5	0x3d761c01	0.0600853
6	0x3dd00e91	0.10159028
7	0xbe10f512	-0.14155987
8	0xbdb58c83	-0.08864691
9	0x3c925ea5	0.017867396
10	0x3e002e18	0.12517583
11	0x3d38f0ae	0.045151405
12	0x3d94e187	0.072695784
13	0x3d7d4bf3	0.06184001
14	0x3d424faa	0.047439255
15	0x3d2a6ddc	0.041608676

features.1.weight f4 [16]
0	0x3f8240d2	1.0176032
1	0x3f7fdf7a	0.99950373
2	0x3f802410	1.0011005
3	0x3f817aab	1.011556
4	0x3f8243e3	1.0176967
5	0x3f7b084d	0.9805954
6	0x3f7b3f62	0.9814359
7	0x3f7f8061	0.99805266
8	0x3f73dcdf	0.952589
9	0x3f7fa72d	0.99864465
10	0x3f7f6d45	0.9977611
11	0x3f7ef7b6	0.99596727
12	0x3f7f7051	0.99780756
13	0x3f811026	1.0083053
14	0x3f826694	1.0187554
15	0x3f824656	1.0177715

features.1.bias f4 [16]
0	0xbc22591a	-0.009908939
1	0xbd02ff53	-0.031981777
2	0xbc3da5b9	-0.011575156
3	0xbcca8b0d	-0.024724508
4	0x3c7eb2bc	0.015545543
5	0xbbc2691a	-0.0059329392
6	0xbc8e2790	-0.01735285
7	0x3bac558f	0.005259223
8	0xbcd0ec3a	-0.025503267
9	0xbcdf17c2	-0.027233008
10	0xbc631322	-0.013859542
11	0xbcc4bae9	-0.024014907
12	0xbb32351c	-0.00271923
13	0xbd134b0f	-0.035960253
14	0x3afdbae5	0.0019358067
15	0xbcf13c1a	-0.029447604

features.1.running_mean f4 [16]
0	0xbdec8552	-0.11548866
1	0x3dbd73e9	0.09250624
2	0xbe09307b	-0.133974
3	0x3dc351b6	0.095370695
4	0x3c476b64	0.0121716
5	0x3d8592e3	0.06522157
6	0x3dd815ef	0.105510585
7	0xbe06668b	-0.13125055
8	0xbdaa263f	-0.08308076
9	0x3c2bf953	0.010496455
10	0x3dfbe851	0.1230017
11	0x3cec613a	0.028854955
12	0x3da9bdfa	0.08288188
13	0x3da693d1	0.081336625
14	0x3d4e3ed7	0.050352897
15	0x3d8e67ca	0.0695339

features.1.running_var f4 [16]
0	0x3e34c6bb	0.17653935
1	0x3de1ee69	0.11031801
2	0x3f00f7da	0.5037819
3	0x3d3cf313	0.04613025
4	0x3e296479	0.16542234
5	0x3d1ae95a	0.037820198
6	0x3d9322bf	0.07184362
7	0x3e033f49	0.1281711
8	0x3d1a9e18	0.037748426
9	0x3dc685fa	0.09693523
10	0x3d8cfc8c	0.06884107
11	0x3e24f9a9	0.16110863
12	0x3da44489	0.080208845
13	0x3e530436	0.20607075
14	0x3dd1b5f9	0.10239787
15	0x3ea4149e	0.3204698

features.4.weight f4 [32, 16, 7, 7]
0	0xbc44b391	-0.012005703
1	0xbcb3cfd0	-0.021949679
2	0xbbfd9899	-0.0077391383
3	0x3cb5983c	0.022167318
4	0x3a9be9cd	0.001189524
5	0xbc71fd31	-0.014769838
6	0x38fe4c1a	0.00012125839
7	0x3c05a4bc	0.0081569515
8	0x3ca091c2	0.019600753
9	0x3ba03576	0.0048891855
10	0xb9cad321	-0.00038685746
11	0xbcb9e15b	-0.022690466
12	0x3ce1c8b1	0.027561517
13	0x3cd54648	0.02603449
14	0x3b31fe5b	0.0027159664
15	0x3cbb1296	0.02283601
16	0xbc9332c9	-0.017968552
17	0xbc0f4875	-0.008745302
18	0x3d0ff61a	0.03514681
19	0x3ca36f6b	0.01995059
20	0x3c78a9f7	0.0151772415
21	0x3c65d048	0.014026709
22	0xbb0bee2a	-0.0021351674
23	0x3d20f56a	0.039296545
24	0x3d08a227	0.033357766
25	0x3ca1b3bb	0.019739022
26	0xbc03ba90	-0.008040085
27	0xbcb108e2	-0.021610681
28	0x3d0b6a9a	0.03403721
29	0x3ccf5f8a	0.025314111
30	0x3ce31ee9	0.0277247
31	0xbc62b879	-0.013837927
32	0xbbce07e3	-0.0062875613
33	0xbce3ce9a	-0.027808476
34	0x3c2db11e	0.01060131
35	0x3cfa87c7	0.030582322
36	0x3cb9ef3c	0.022697084
37	0x3cad5a61	0.02116126
38	0x3d014b4d	0.031565953
39	0x3c2f50c0	0.010700405
40	0xbcca37a5	-0.024684737
41	0xbd03c154	-0.032166794
42	0xbc983d8d	-0.018584037
43	0xbc1feea2	-0.009761484
44	0x3c46f909	0.012144336
45	0x3d0a89db	0.033822875
46	0xbd42c714	-0.047553137
47	0xbd4015b6	-0.046895705
48	0xbc9b22ca	-0.018937487
49	0xbabd12cc	-0.0014425158
50	0x3c94487e	0.018100973
51	0xbc7e79bd	-0.015531954
52	0xbcb34d8c	-0.021887563
53	0x3ca3305a	0.019920517
54	0xbc2410e8	-0.010013796
55	0xbcad045e	-0.021120246
56	0xbc4fdc07	-0.012686736
57	0xbcb25976	-0.021771174
58	0xbc047845	-0.008085315
59	0x3c534d80	0.012896895
60	0x3cd46a64	0.025929637
61	0xbc03e0fe	-0.008049248
62	0xbca46c39	-0.020071136
63	0x3ce8d55e	0.028422054
64	0xbcdc832e	-0.02691802
65	0x3ce8945e	0.02839106
66	0x3c5bb016	0.013408681
67	0x3ba8f327	0.005155939
68	0x3ccde100	0.025131702
69	0xbcf8ee77	-0.030387146
70	0xbcaca677	-0.02107547
71	0x3a2d3b61	0.00066082744
72	0xbcd70f7c	-0.0262525
73	0xbae193e5	-0.0017210214
74	0x3bd74550	0.006569542
75	0xbba6c133	-0.005088949
76	0x3c4a750c	0.012357008
77	0xbb8a485e	-0.0042200526
78	0xbc099a5e	-0.00839862
79	0xbc6241e5	-0.013809656
80	0x3cb58e27	0.02216251
81	0xbc8f9627	-0.017527653
82	0x3c154fd7	0.009113274
83	0x3ccba0ba	0.024856914
84	0x3bfa77f6	0.007643695
85	0xbcad0aac	-0.021123253
86	0x3c7d63a5	0.015465652
87	0xbb39927f	-0.0028316078
88	0x39299ca5	0.0001617545
89	0xbc42fe82	-0.0119015
90	0x3d4d811e	0.050171964
91	0x3d200974	0.039071515
92	0x3d3736cb	0.04472999
93	0x3c17ea9d	0.009272245
94	0x3c805b55	0.01566855
95	0x3b8d97a7	0.004321057
96	0xbccb1fa6	-0.024795365
97	0x3bddc4d7	0.00676785
98	0x3c93735b	0.017999342
99	0xbc0a2de6	-0.008433795
100	0xbc50abbe	-0.012736259
101	0xbcd54388	-0.026033178
102	0xbcbec586	-0.023287546
103	0x3c13290b	0.008981953
104	0x3d30662b	0.043066185
105	0x3d20288a	0.03910116
106	0xbc233f1a	-0.009963775
107	0xbccbfc41	-0.024900557
108	0x3c6a21a0	0.014290243
109	0xbbd316da	-0.006441933
110	0x3c65e354	0.01403125
111	0xbcd42d7e	-0.025900599
112	0xbcc9bb5d	-0.024625475
113	0x3aba7602	0.0014225843
114	0x3b8b88e8	0.004258264
115	0xbcfaea06	-0.03062917
116	0x3c96dc08	0.018415466
117	0x3c17d443	0.009266916
118	0x3cec5501	0.028849127
119	0xbcbd8cbf	-0.023138402
120	0xbcda2e61	-0.026633443
121	0xbc07e703	-0.008294824
122	0x3b9397e4	0.0045041908
123	0xbcbcc1c6	-0.023041617
124	0x3d0297a8	0.031882912
125	0xbc508e30	-0.012729213
126	0xbc83f1e8	-0.01610656
127	0xbb8e7577	-0.004347499
128	0xbd1b5b46	-0.037928842
129	0x3ce536c3	0.027980214
130	0x3b7ed54f	0.0038884466
131	0x3d17f6b4	0.03710051
132	0x3d10fe90	0.03539902
133	0x3bbc81b4	0.0057527665
134	0xbcfe62e5	-0.031053016
135	0xbcc7214a	-0.024307866
136	0x3ca63338	0.020288095
137	0xbc8b6f37	-0.017020805
138	0x3d071ca4	0.0329863
139	0x3c620f0f	0.013797536
140	0xbce261db	-0.027634552
141	0x3c9ab5b0	0.018885463
142	0x3afdbe92	0.0019359163
143	0x3b8f0aa8	0.004365284
144	0xbba445f5	-0.0050132223
145	0x3c91a3fb	0.017778387
146	0x3cb2a275	0.021805981
147	0xbd0b7391	-0.03404576
148	0x3bee5261	0.007273004
149	0x3c727fce	0.014800979
150	0x3caebcd1	0.021330269
151	0x3c830b67	0.015996648
152	0xbc11295d	-0.008859959
153	0x3a2d9dfe	0.0006622969
154	0xbcccde4c	-0.025008343
155	0x3b87eb3c	0.004147915
156	0xbc036bde	-0.008021323
157	0xbb52959e	-0.0032132636
158	0x3b612314	0.0034353184
159	0x3ce3a89b	0.027790358
160	0xba602b41	-0.0008551367
161	0xbc2718e0	-0.010198802
162	0xbcb0bdcd	-0.021574879
163	0x3d062aaa	0.03275553
164	0x3d2f9b7a	0.042872883
165	0x3cbeefb7	0.023307664
166	0x3ca2d55c	0.019877128
167	0x3cec967f	0.028880356
168	0xbd589cfd	-0.05288409
169	0x3ca51e22	0.02015597
170	0x3b3410c3	0.002747581
171	0x3ca3f505	0.020014295
172	0xbb542b8b	-0.0032374586
173	0xbce26e0e	-0.027640369
174	0xbb8a4d14	-0.004220614
175	0x3c5c2906	0.013437515
176	0x3b8a3249	0.0042174202
177	0x3c793f7d	0.015212891
178	0x3c78f42f	0.015194937
179	0xbc0fa3f0	-0.008767113
180	0xbce06abb	-0.027394643
181	0xbc5ffa54	-0.013670523
182	0xbc423d44	-0.011855427
183	0x3b3060ba	0.0026913122
184	0x3d3225b3	0.043492984
185	0xbcc16599	-0.023608016
186	0xbb67eea8	-0.0035390053
187	0xbcf8528b	-0.030312797
188	0xbc366d57	-0.011134467
189	0x3cca6803	0.0247078
190	0xbc93c893	-0.018039977
191	0xbcd20b6d	-0.025640214
192	0x3c33ab87	0.010966188
193	0x3c975309	0.018472211
194	0x3ca8e925	0.020618984
195	0x3d165e44	0.036710992
196	0x3ca08efb	0.019599428
197	0x3d13a83d	0.036049116
198	0xbc65336d	-0.013989312
199	0xbb2aa707	-0.0026039497
200	0x3c1d14c9	0.009587475
201	0x3cfc8e9f	0.030829726
202	0x3d2baca8	0.041912705
203	0x3d4175f6	0.047231637
204	0x3b8cd8dd	0.004298313
205	0xbc792b72	-0.015208112
206	0xbca48716	-0.020083945
207	0xbd10ff46	-0.035399698
208	0x3c49e91d	0.012323645
209	0x3c9cabd9	0.019124912
210	0x3b5ec3dc	0.0033991253
211	0xbcd1a0d3	-0.025589382
212	0x3ada5a45	0.0016658982
213	0x3bc966d5	0.0061462917
214	0xbc055658	-0.008138262
215	0xbd053b90	-0.032527506
216	0xbc0660c2	-0.00820178
217	0xbc227f68	-0.009918071
218	0x3c52baed	0.012861949
219	0xbca92c18	-0.020650908
220	0xbc3c7022	-0.011501344
221	0x3ccb98ac	0.024853073
222	0xbcfb819a	-0.030701447
223	0x39fbb0a9	0.00048006073
224	0x3bbf3b32	0.005835914
225	0xbcc01889	-0.0234492
226	0xbbf51a7f	-0.007479965
227	0x3ce17feb	0.027526816
228	0xbbfac246	-0.0076525537
229	0x3c479dc5	0.012183611
230	0xbd0b0c19	-0.033947084
231	0x3c755322	0.014973434
232	0x3b020a41	0.0019842538
233	0x3d00012e	0.031251125
234	0x3c9f1162	0.019417468
235	0x3d1ea400	0.03873062
236	0xbb018b8e	-0.001976702
237	0x3ced8bd7	0.028997345
238	0x3b322556	0.0027182898
239	0x3c8e3977	0.017361386
240	0x3ad3f61a	0.0016171366
241	0x3cf402c5	0.029786477
242	0x3c4dae0d	0.012553704
243	0xbc9746bc	-0.018466346
244	0x3cf7c961	0.030247392
245	0xbbcfa070	-0.0063362643
246	0x3c8b7147	0.017021788
247	0xbc83b57a	-0.016077746
248	0xbb9d6e97	-0.004804443
249	0xbcd22225	-0.025651047
250	0x3c8e314d	0.017357493
251	0xbcc78ece	-0.024360087
252	0xbc0f2d9f	-0.008738904
253	0xbc644873	-0.013933289
254	0x3cd5eaf4	0.026113011
255	0xbc98be92	-0.018645559

features.4.bias f4 [32]
0	0xbd024f2b	-0.03181378
1	0xbc2a9957	-0.010412536
2	0x3c28d2c5	0.010304158
3	0x3c7e66ae	0.01552741
4	0xbbff1ea5	-0.0077856355
5	0x3cabd5de	0.020976003
6	0x3cd295ee	0.025706258
7	0xbbf647ca	-0.007515882
8	0xbc8ea3f5	-0.017412165
9	0x3c586d8a	0.01320971
10	0x3b7c776e	0.0038523334
11	0xbac8c4b7	-0.0015317415
12	0x3cac453e	0.021029111
13	0xbcffefe3	-0.031242317
14	0x3cd94f6e	0.026527133
15	0x3ce5df73	0.02806065
16	0xbcb9772a	-0.02263983
17	0x3c599d41	0.013282121
18	0x3cfa60ce	0.030563738
19	0x3c926060	0.01786822
20	0xbc576a6e	-0.013147933
21	0xbcd3030e	-0.025758293
22	0xbc9b3b9e	-0.018949326
23	0xbc67ab6a	-0.014139989
24	0x3ccfad7a	0.025351275
25	0xbca453fc	-0.020059578
26	0xbc4ac1c1	-0.012375296
27	0x3cd81c3c	0.02638065
28	0xbbf372a5	-0.007429438
29	0xbcb4156a	-0.021982867
30	0xbcaf4ace	-0.021397974
31	0xbc60139c	-0.01367655

features.5.weight f4 [32]
0	0x3f7c9f82	0.9868089
1	0x3f810446	1.0079429
2	0x3f7e0523	0.9922659
3	0x3f80eb2b	1.0071768
4	0x3f818006	1.0117195
5	0x3f825dd5	1.0184885
6	0x3f81c07a	1.0136864
7	0x3f7a11c3	0.9768335
8	0x3f807a61	1.0037347
9	0x3f7e2bd0	0.992856
10	0x3f821ac8	1.0164423
11	0x3f7ab21a	0.9792801
12	0x3f7e040f	0.9922494
13	0x3f7b0d05	0.9806674
14	0x3f80dffc	1.0068355
15	0x3f82269c	1.0168033
16	0x3f810774	1.00804
17	0x3f7fb49f	0.9988498
18	0x3f7dfccb	0.99213856
19	0x3f7d4d2a	0.9894587
20	0x3f81a50f	1.0128497
21	0x3f84be14	1.0370507
22	0x3f7ce409	0.98785454
23	0x3f80412e	1.0019891
24	0x3f829416	1.0201442
25	0x3f80163e	1.0006788
26	0x3f80d38a	1.0064557
27	0x3f7b4ff3	0.9816887
28	0x3f7be3c8	0.9839444
29	0x3f7fb7b5	0.9988969
30	0x3f7aba76	0.97940767
31	0x3f7c9162	0.98659337

features.5.bias f4 [32]
0	0xbb7fd22e	-0.003903519
1	0xbcb7836a	-0.02240153
2	0xbbc6aa1c	-0.006062759
3	0xbccd4008	-0.025054947
4	0xbca131bb	-0.019677034
5	0xbcf26524	-0.029589243
6	0xbcbafafa	-0.022824753
7	0xbc53b29c	-0.012921002
8	0xbcdd6014	-0.027023353
9	0xbca49d28	-0.02009447
10	0xbd140915	-0.036141474
11	0xbcb3b855	-0.021938482
12	0xbd1f236c	-0.03885214
13	0xbcfabe9d	-0.03060847
14	0xbd098cee	-0.033581667
15	0xbc822ddb	-0.015891006
16	0xbb1d1545	-0.0023968976
17	0xbcc6a55b	-0.02424877
18	0xbc739d04	-0.014868978
19	0xbc02a1c8	-0.007973142
20	0xbd06d66e	-0.03291934
21	0xbd5064ca	-0.05087737
22	0xbc1113e0	-0.008854836
23	0xbcdd9b64	-0.027051635
24	0xbca851df	-0.020546852
25	0xbcab49e2	-0.020909254
26	0xbbebf2ef	-0.007200591
27	0x3c39282f	0.011301084
28	0xbc23d4f1	-0.0099995
29	0xbbedd6fa	-0.007258293
30	0xbc8437e0	-0.016139925
31	0xbcb09e92	-0.021559987

features.5.running_mean f4 [32]
0	0x3f51a4a4	0.81891847
1	0xbfab9189	-1.3403789
2	0x3ac87dfb	0.0015296334
3	0xbf4e8809	-0.80676323
4	0xbe61fe5b	-0.22069685
5	0xbf8d8917	-1.1057462
6	0xbf791304	-0.9729464
7	0x3f12eefa	0.573959
8	0xbf64342e	-0.8914212
9	0x3f00938c	0.5022514
10	0xbee2227d	-0.44166937
11	0x3e9ef5b3	0.3104683
12	0x3ed4c35e	0.41555303
13	0x3f97b5e0	1.1852379
14	0xbe134a48	-0.14383805
15	0xbf91c1d1	-1.1387273
16	0x3f7ffc8c	0.9999473
17	0xbf3cb846	-0.7371868
18	0xbf00f7f8	-0.5037837
19	0x3f841d96	1.0321529
20	0xbfa535dd	-1.2907063
21	0xbf73e808	-0.95275927
22	0x3f345b66	0.7045196
23	0xbeb319ea	-0.34980708
24	0xbf52db2f	-0.823657
25	0xbf63ddb8	-0.8901019
26	0xbec0b8b9	-0.37640932
27	0x3f08bb8d	0.5341118
28	0x3f069ad6	0.5258001
29	0xbef79aa3	-0.48360166
30	0xbd6e4e6a	-0.05818025
31	0x3f089d60	0.53365135

features.5.running_var f4 [32]
0	0x3e9f0238	0.3105638
1	0x3ee36884	0.44415677
2	0x3e992f29	0.29918793
3	0x3e96b40a	0.29434234
4	0x3e6ba140	0.2301073
5	0x3ebff94c	0.37494886
6	0x3ea3f1d5	0.3202044
7	0x3ef3f7ba	0.47649938
8	0x3e87c04e	0.26513904
9	0x3ebc01b0	0.36720037
10	0x3e54754a	0.20747867
11	0x3e739e2b	0.23790805
12	0x3e5f329a	0.21796647
13	0x3efb67fc	0.4910277
14	0x3ec59797	0.38592216
15	0x3ec4658c	0.38358724
16	0x3ea8a2d2	0.32936722
17	0x3ebd3707	0.36956045
18	0x3ea56524	0.32303727
19	0x3ec018ec	0.37519014
20	0x3ed634b8	0.41837096
21	0x3eabecd5	0.33579126
22	0x3e6e9985	0.2330075
23	0x3ead2424	0.33816636
24	0x3e9c223d	0.30494872
25	0x3ea144fb	0.3149794
26	0x3e921dbb	0.28538308
27	0x3ea1738f	0.31533477
28	0x3ecd0393	0.4004179
29	0x3f00096e	0.5001439
30	0x3ecdf886	0.4022867
31	0x3eae5119	0.34046248

features.8.weight f4 [64, 32, 7, 7]
0	0xbc8ce41f	-0.01719862
1	0xbbf47d85	-0.007461252
2	0xbcb46290	-0.022019655
3	0x3cdbdca7	0.026838614
4	0xbb8260bf	-0.003978818
5	0xbc426387	-0.0118645495
6	0x3a104132	0.0005502879
7	0x3bb4930d	0.005510694
8	0x3c688cfd	0.0141937705
9	0x3b4f791f	0.0031657887
10	0x3c097dac	0.008391779
11	0x3b995eba	0.0046804817
12	0x3914ae75	0.0001417937
13	0x3cb19146	0.021675717
14	0xbc923e97	-0.01785211
15	0x3b6412b2	0.0034801182
16	0xbc6205cf	-0.01379533
17	0xbc67114e	-0.014103247
18	0x3bcc9103	0.0062428727
19	0xbcbb33c4	-0.022851832
20	0xbc9a8ac4	-0.018864997
21	0x3bc1dd30	0.00591626
22	0x3c8410bf	0.016121266
23	0x3b231775	0.0024885808
24	0x3aa1fc75	0.0012358563
25	0xbd0e9381	-0.03480864
26	0xbc809092	-0.015693936
27	0xbc88f253	-0.016717112
28	0xbc2faf26	-0.010722911
29	0x3ba0b5c4	0.0049044807
30	0xbc3f7b66	-0.011687135
31	0xbcdc2e6d	-0.026877606
32	0xbc369849	-0.011144706
33	0xba87f4ea	-0.0010372673
34	0x3c06a00f	0.008216872
35	0xbcb393b6	-0.02192102
36	0xbad2e680	-0.0016090423
37	0x3c6e4f38	0.014545254
38	0xbce886cb	-0.028384587
39	0x3c95fbfc	0.018308632
40	0x3c5c4f80	0.013446689
41	0x3c97181e	0.018444117
42	0xbc750d8a	-0.014956841
43	0x3c2b4186	0.010452634
44	0x399b8055	0.0002965952
45	0xbc8b0c4f	-0.016973643
46	0xbb3a1a22	-0.0028396924
47	0xbc54a84e	-0.01297958
48	0xbc5e65fe	-0.0135741215
49	0x3c51de78	0.012809388
50	0x3c8e9fc3	0.017410165
51	0x3bb60454	0.005554715
52	0x3b4b469f	0.0031017435
53	0xbcb0be62	-0.021575157
54	0xbb7b6dc9	-0.0038364998
55	0xbcdef69c	-0.027217202
56	0xbaa537cf	-0.0012605133
57	0x3c98c450	0.018648297
58	0xbc85df5f	-0.016341863
59	0x3b9b071a	0.004731071
60	0x3c80f463	0.015741533
61	0x3c59fe0d	0.013305199
62	0xbce32e77	-0.027732117
63	0x3b702d5b	0.0036648128
64	0x3bec0034	0.0072021727
65	0xbc0e7269	-0.00869427
66	0x3c137a58	0.009001337
67	0xbc65aaa4	-0.014017735
68	0xbc8ddd64	-0.017317481
69	0x3cc63d56	0.02419917
70	0xbc433b5b	-0.011916007
71	0x3bbf8120	0.0058442503
72	0xbc9f79e2	-0.019467298
73	0xbb5075a3	-0.0031808398
74	0xbc7b5005	-0.015338902
75	0xbc5912ef	-0.013249143
76	0x3a8ecf1c	0.0010895464
77	0xbc311050	-0.010807112
78	0xbbf103e1	-0.0073551987
79	0x3c9cd07c	0.019142382
80	0xba2799ab	-0.0006393443
81	0xbc0d3754	-0.008619148
82	0x3bf2e35c	0.0074123573
83	0xbca0e55e	-0.01964062
84	0x3ca26d1b	0.019827416
85	0x3c90d8bb	0.01768147
86	0x3c92606b	0.017868241
87	0x3c5af523	0.013364109
88	0xbac9932f	-0.0015378947
89	0xbc4fa154	-0.012672741
90	0x3bfeb08a	0.00777251
91	0xbc923062	-0.017845336
92	0x3ae78f60	0.001766663
93	0x3c3da386	0.011574632
94	0xbb39137e	-0.0028240378
95	0xbcc43022	-0.023948733
96	0xbcd31e30	-0.02577123
97	0xbca36008	-0.019943252
98	0x3ca16aee	0.019704308
99	0x3c11c815	0.008897801
100	0x3c356948	0.011072464
101	0x3c82b608	0.01595594
102	0x3cb08489	0.021547573
103	0x3c90b308	0.017663494
104	0x3c630597	0.013856313
105	0x3b3a8e75	0.0028466259
106	0xbcb28df9	-0.021796213
107	0x381396f0	3.5188103e-05
108	0xbcb867e7	-0.022510482
109	0xbc74a9f7	-0.014933101
110	0x3cb81e44	0.02247537
111	0xbc21c26f	-0.009873017
112	0xbc1f8a72	-0.009737598
113	0xbc880e0c	-0.01660826
114	0x3c983992	0.01858214
115	0xbcbef782	-0.02331138
116	0xbca3db6d	-0.020002091
117	0xbb6209af	-0.0034490635
118	0xbc6bf168	-0.014400817
119	0xbc1da50d	-0.009621871
120	0xbcd6934c	-0.026193283
121	0xbbef7b36	-0.007308389
122	0xbcd32e0d	-0.025778795
123	0xbccff1e5	-0.025383899
124	0xbb692ad5	-0.0035578508
125	0xbccdce7c	-0.025122873
126	0xbcad6441	-0.021165969
127	0xbba9e662	-0.0051849345
128	0x3ce785f8	0.028262123
129	0x3b851a84	0.004061999
130	0x3a0e6972	0.00054325827
131	0xbb417246	-0.0029517575
132	0xbbd16ccf	-0.006391145
133	0xba5e6540	-0.00084837154
134	0x3ad4e88f	0.0016243624
135	0xbbd6ea8f	-0.0065587233
136	0xbc95df63	-0.018294996
137	0x3b96ec28	0.0046057887
138	0x3c072ca6	0.008250391
139	0xbc458880	-0.01205647
140	0x3c37b516	0.011212608
141	0x3c5e9fc1	0.013587893
142	0xbc40bee1	-0.011764259
143	0xbc9e2682	-0.019305471
144	0x3be30f73	0.006929332
145	0x3c597a57	0.013273797
146	0x3b3ba5a9	0.0028632677
147	0xbc04b15a	-0.0080989245
148	0xbc0a8314	-0.008454103
149	0xbba5795d	-0.005049868
150	0xbc8d9d6c	-0.017286979
151	0xbce974e3	-0.028498119
152	0x3ace742a	0.0015751172
153	0xbbde3fe1	-0.0067825173
154	0xba1864b0	-0.00058133435
155	0xbbfdcf98	-0.0077456944
156	0x3c24b1b9	0.010052138
157	0xbc2f255a	-0.010690058
158	0x3c174dad	0.009234828
159	0xbc94f990	-0.018185407
160	0x3cb0c6d8	0.021579191
161	0x3c2b6894	0.010461945
162	0x3b767e0c	0.003761175
163	0x3c61d6c3	0.013784113
164	0xbc3aa655	-0.011392196
165	0xbc617702	-0.013761284
166	0xbc43934c	-0.011936974
167	0x3c5dca3d	0.013536987
168	0xbc0e9a09	-0.008703717
169	0x3c9d5dc6	0.019209754
170	0x3c8a03d8	0.016847536
171	0xbcfc55b5	-0.030802587
172	0x3becb808	0.0072240867
173	0x3c51af54	0.012798149
174	0xbcc7e953	-0.02440325
175	0xbc80c217	-0.01571755
176	0xbc240ce2	-0.010012837
177	0xbc036230	-0.008019015
178	0xbb629310	-0.003457252
179	0x3bcbedc5	0.0062234127
180	0xb9ba5948	-0.00035543204
181	0xba144951	-0.0005656677
182	0x3c81cd1d	0.015844876
183	0xbca4ca11	-0.020115884
184	0x3c0edab9	0.00871914
185	0x3ba57f17	0.0050505507
186	0x3bbc075c	0.005738182
187	0x3b5004ee	0.003174122
188	0xbc43a6ec	-0.011941653
189	0x3c33d425	0.010975872
190	0x3c9a169b	0.018809607
191	0xbb6d8c9f	-0.0036247147
192	0x3c835e37	0.016036136
193	0xbca3b35b	-0.019982984
194	0xbc1f3f7a	-0.009719724
195	0x3c39cc31	0.011340187
196	0x3c03fddb	0.008056129
197	0x3b3b0507	0.0028536932
198	0x3b9f3d99	0.004859638
199	0xbc7ce12d	-0.015434545
200	0xbb103d05	-0.0022009027
201	0xbc5f34e4	-0.01362345
202	0xbcc42de7	-0.02394767
203	0x3cc6d884	0.024273165
204	0x3c03b739	0.008039289
205	0xbcd0895e	-0.025456127
206	0x3c9bf760	0.019038856
207	0x3c6fac65	0.014628504
208	0x3ba329f0	0.0049793646
209	0xbcc44349	-0.023957865
210	0x3d0a9108	0.03382972
211	0x3c4d65cb	0.012536476
212	0x3c852228	0.016251639
213	0xbbfc2a1b	-0.007695449
214	0x3befde26	0.0073201833
215	0xbc18d443	-0.009327951
216	0xbcb8d451	-0.022562178
217	0xbc855316	-0.01627497
218	0x3bbcfbe6	0.0057673333
219	0xbcdb5d15	-0.026777783
220	0x399d840e	0.00030043762
221	0x3c1b039b	0.009461309
222	0x3b83a39e	0.0040173074
223	0xbb81df0a	-0.003963356
224	0xbc75ef2f	-0.015010639
225	0x3cb84224	0.022492476
226	0xbb22720c	-0.0024787216
227	0x3c5d00b5	0.013488938
228	0xbc412858	-0.011789404
229	0xb93fa7e4	-0.00018277724
230	0x3a28b98a	0.0006436339
231	0xbcbbdf58	-0.022933647
232	0xbad75c74	-0.0016430751
233	0x3c2b53e1	0.01045701
234	0xbb5bc943	-0.003353671
235	0xbc2a1523	-0.010381016
236	0x3c3d02d2	0.011536317
237	0xbbfffb4d	-0.00781194
238	0x3c1fa7e0	0.009744614
239	0x3c43141a	0.011906648
240	0xbc87d356	-0.016580265
241	0x3ba6516b	0.0050756237
242	0xbba7430d	-0.0051044286
243	0xbc7030ba	-0.014660055
244	0xba7e17c3	-0.0009692872
245	0x3ce558d3	0.027996456
246	0xbcd9d2b6	-0.026589733
247	0x3c93cfe9	0.018043475
248	0x3ca043d5	0.019563595
249	0xbce6f3c7	-0.028192414
250	0xbaf7d55d	-0.0018908192
251	0x3beff7ac	0.007323226
252	0x3a1ac748	0.0005904329
253	0xbb4f1710	-0.003159944
254	0xbc26c4b2	-0.010178732
255	0x3b82a940	0.0039874613

features.8.bias f4 [64]
0	0x3c4d9396	0.012547394
1	0xbbefbd83	-0.0073162927
2	0xbc667427	-0.014065779
3	0x3cb245d7	0.021761818
4	0xbb338277	-0.0027390996
5	0x3cbe4145	0.023224482
6	0xbc86e22d	-0.01646527
7	0xbc7079b0	-0.01467745
8	0xb9395319	-0.00017673931
9	0xbc20db08	-0.009817846
10	0x3cb5ae05	0.022177706
11	0xbca7d9ce	-0.0204896
12	0xbcad547c	-0.02115845
13	0x3b369772	0.0027861265
14	0xbcbb34ce	-0.022852328
15	0x3ba856c0	0.0051372945
16	0x3c01f44a	0.007931778
17	0xbc175251	-0.009235934
18	0xbc036430	-0.008019492
19	0x3c89729b	0.016778281
20	0xbcbff70a	-0.023433227
21	0xbbae9783	-0.00532812
22	0xbcac7bf1	-0.021055194
23	0x3cb84abd	0.022496575
24	0x3c60540e	0.013691915
25	0x3c5f7476	0.013638606
26	0xbbfa0221	-0.0076296483
27	0xbc7bea69	-0.015375712
28	0x3b1b523b	0.0023700136
29	0x3c8c91d2	0.017159376
30	0xbb62eea1	-0.0034627097
31	0x3ca4c507	0.020113481
32	0xbbdeb693	-0.006796667
33	0xbca05f28	-0.019576624
34	0x3c931393	0.01795367
35	0xbc34019b	-0.010986711
36	0xbbca2198	-0.0061685555
37	0x3c8a3f43	0.016875869
38	0x3b45f9ad	0.0030208633
39	0x3c3a9adf	0.011389463
40	0x3c9dfcb9	0.019285547
41	0xbca8e592	-0.02061728
42	0xbc94ff2c	-0.018188082
43	0xbaad29f0	-0.0013211351
44	0x3c0faf27	0.008769787
45	0xbc545198	-0.012958907
46	0x3c87584f	0.016521601
47	0xbaab477d	-0.001306757
48	0x3ca90a0f	0.02063468
49	0xbc92648d	-0.017870212
50	0xbc37a6ed	-0.011209232
51	0x3ba8170f	0.005129702
52	0xbc03a0a5	-0.008033906
53	0xbb3888cb	-0.0028157707
54	0x3c0c6598	0.008569144
55	0xbc869031	-0.016426178
56	0xbc120208	-0.008911617
57	0xbcb9c186	-0.022675287
58	0x3be3114e	0.006929553
59	0x3bebab90	0.0071920827
60	0xbcb17e02	-0.02166653
61	0xbc35ba3c	-0.011091765
62	0x3c81c859	0.015842604
63	0xba0935d5	-0.0005234157

features.9.weight f4 [64]
0	0x3f8622aa	1.0479329
1	0x3f8c8275	1.0977312
2	0x3f8b120e	1.0864885
3	0x3f8fa2f0	1.12216
4	0x3f8b3736	1.0876224
5	0x3f8c8cf9	1.0980521
6	0x3f8b8542	1.0900042
7	0x3f8898fa	1.0671685
8	0x3f8cde41	1.1005327
9	0x3f8cacaf	1.0990199
10	0x3f91502d	1.1352593
11	0x3f8c5ee6	1.0966461
12	0x3f871a43	1.055489
13	0x3f86957a	1.0514367
14	0x3f8abb88	1.083848
15	0x3f8ad880	1.084732
16	0x3f885ad2	1.0652716
17	0x3f88c761	1.0685846
18	0x3f89c851	1.0764257
19	0x3f85f9e6	1.0466888
20	0x3f89f85d	1.077892
21	0x3f8a0363	1.0782284
22	0x3f93ed07	1.155671
23	0x3f912e18	1.1342192
24	0x3f8bd5c5	1.0924612
25	0x3f880971	1.0627881
26	0x3f87f1ef	1.0620707
27	0x3f8d5dda	1.1044266
28	0x3f8716f7	1.0553883
29	0x3f87e014	1.0615258
30	0x3f8d221a	1.1026032
31	0x3f8ae17c	1.0850062
32	0x3f88d8e4	1.069119
33	0x3f8657f5	1.0495592
34	0x3f8b569d	1.0885807
35	0x3f86f1c9	1.0542537
36	0x3f8cfa0b	1.1013807
37	0x3f8d9806	1.1062019
38	0x3f88fb5f	1.0701712
39	0x3f85359e	1.0406988
40	0x3f8d6f65	1.104962
41	0x3f8daee7	1.1069001
42	0x3f8cf6a2	1.1012766
43	0x3f90cff9	1.1313468
44	0x3f8ca8c1	1.0989
45	0x3f88c6e1	1.0685693
46	0x3f89ffa7	1.0781144
47	0x3f8f0965	1.1174742
48	0x3f8a7405	1.0816656
49	0x3f8afcda	1.0858414
50	0x3f8b262d	1.0871025
51	0x3f8a5966	1.0808532
52	0x3f87311a	1.056186
53	0x3f8c1678	1.0944357
54	0x3f864b50	1.0491734
55	0x3f88043a	1.062629
56	0x3f89bf51	1.076151
57	0x3f884ee6	1.0649078
58	0x3f88fe58	1.070262
59	0x3f87953c	1.0592418
60	0x3f884eef	1.0649089
61	0x3f8875c5	1.066094
62	0x3f8a1a6d	1.0789315
63	0x3f861653	1.0475563

features.9.bias f4 [64]
0	0x3b71e938	0.003691269
1	0x3c82cc0b	0.015966436
2	0x3c1388e3	0.009004804
3	0x3c849305	0.016183386
4	0x3c216297	0.009850166
5	0x3c5fd419	0.013661408
6	0x3bbe6053	0.0058098226
7	0x3bc9379d	0.006140663
8	0x3c7f7d0f	0.015593781
9	0x3c17193a	0.009222323
10	0x3c852647	0.016253604
11	0x3caf712e	0.021416273
12	0x3b884b51	0.004159369
13	0x3c10d211	0.008839146
14	0x3b71fe78	0.0036925357
15	0x3c4d0960	0.012514442
16	0x3c388650	0.011262491
17	0x3bbaebba	0.0057043703
18	0x3c2b7a49	0.010466167
19	0x3c239c9a	0.009986067
20	0x3a5251c4	0.0008023048
21	0x3b98fa3f	0.0046685035
22	0x3cb55d3a	0.02213918
23	0x3c41ab5d	0.011820641
24	0x3c454c0d	0.012042058
25	0x3c3d5e94	0.011558194
26	0xb86292af	-5.401921e-05
27	0x3c17f434	0.009274531
28	0x3b223f3f	0.0024756936
29	0x3bcf77c2	0.006331415
30	0x3c48c683	0.01225436
31	0x3c1910c5	0.009342377
32	0x3c446830	0.011987731
33	0x3b80ffb8	0.003936734
34	0x3c262adc	0.010142054
35	0x39427552	0.00018544987
36	0x3c21bdd0	0.009871915
37	0x3c2f8017	0.010711691
38	0x3c1aa938	0.009439759
39	0x3b29cbe9	0.0025908893
40	0x3c40bf2a	0.011764327
41	0x3c5e3eff	0.013564824
42	0x3c115313	0.008869904
43	0x3c202629	0.009774723
44	0x3c1f36c3	0.009717646
45	0x3be1e284	0.006893458
46	0x3c38b16d	0.01127277
47	0x3c557632	0.013028668
48	0x3c81512c	0.015785776
49	0x3c0fc77c	0.008775588
50	0x3ca17610	0.019709617
51	0x3c14f2fc	0.009091135
52	0x3bdb452c	0.0066915955
53	0x3c4fcc0e	0.012682928
54	0xba9f03aa	-0.0012131829
55	0x3bfff4cc	0.0078111645
56	0x3baa2f87	0.005193654
57	0x3c1870ad	0.009304208
58	0x3b85c7d5	0.0040826597
59	0x3b2fbfad	0.0026817129
60	0x3c473ae7	0.0121600395
61	0x3bea54af	0.0071512084
62	0x3be3d6ab	0.0069530807
63	0x3b6d0059	0.0036163537

features.9.running_mean f4 [64]
0	0xbc437709	-0.011930236
1	0x3da470bc	0.08029315
2	0xbdb9520f	-0.090488546
3	0xbe2aefd1	-0.16693045
4	0x3e2ea837	0.17056356
5	0xbdbe625e	-0.09296106
6	0x3eed3821	0.46331885
7	0xbbf79ae8	-0.007556308
8	0xb893c24f	-7.045699e-05
9	0xbd0dbdec	-0.03460495
10	0xbe50ed35	-0.20402987
11	0xbec887d7	-0.39166138
12	0x3e1eeb52	0.15519455
13	0x3d35b02f	0.044357475
14	0xbe0bf999	-0.13669433
15	0x3d115193	0.035478186
16	0x3cab36e4	0.020900197
17	0x3f04e6a0	0.51914406
18	0x3dc52016	0.096252605
19	0xbe03919a	-0.12848511
20	0x3da2ade8	0.07943326
21	0x3ee94e1c	0.45567405
22	0x3dfd6891	0.1237346
23	0x3def8aef	0.11696421
24	0xbf0fa701	-0.561142
25	0x3db38f16	0.08767526
26	0xbdd5c3d1	-0.1043774
27	0xbe902714	-0.28154814
28	0xbd969808	-0.073532164
29	0x3ed7b87c	0.42132938
30	0xbce98b99	-0.028508948
31	0x3e5c6bdf	0.21525525
32	0x3d039d07	0.032132175
33	0x3e265cc0	0.16246319
34	0xbcc25099	-0.023720073
35	0x3ec2bec3	0.38036165
36	0xbb26a103	-0.002542556
37	0x3d20525c	0.039141044
38	0xbe2866bf	-0.16445445
39	0x3e4c3ea9	0.19945778
40	0xbea2ca5c	-0.31795013
41	0x3e1feb44	0.1561709
42	0xbe54c1bc	-0.20777029
43	0xbe848901	-0.25885776
44	0xbe0d9d7f	-0.13829611
45	0xbe8b4605	-0.27201858
46	0x3e563809	0.20919813
47	0xbb8ba1af	-0.0042612175
48	0x3dceaf62	0.10092045
49	0x3e253eab	0.16137187
50	0xbe961a45	-0.29316917
51	0x3e4f42b7	0.20240293
52	0xbe5329b9	-0.20621385
53	0x3da03186	0.07821946
54	0x3e11db37	0.1424378
55	0x3e039abf	0.12852
56	0x3df47535	0.11936418
57	0x3e3a6cea	0.1820561
58	0xbdd08980	-0.10182476
59	0x3e1f23a6	0.15540943
60	0xbe731b0b	-0.23740785
61	0xbdb527f7	-0.08845513
62	0x3ee69461	0.4503508
63	0x3e9a15b7	0.30094692

features.9.running_var f4 [64]
0	0x3d66561d	0.056234468
1	0x3d269d39	0.040677283
2	0x3d373056	0.04472383
3	0x3d538590	0.051641047
4	0x3d3005d4	0.042974308
5	0x3d5d32f2	0.054003663
6	0x3daae150	0.08343756
7	0x3d67e865	0.056618113
8	0x3d4ba827	0.04972091
9	0x3d8bb7d5	0.068221726
10	0x3d386f5d	0.04502808
11	0x3d805dc4	0.062678844
12	0x3d911e2e	0.070858344
13	0x3d6ef973	0.058343362
14	0x3d4c6e9d	0.049910177
15	0x3d43cbf5	0.04780193
16	0x3d5a5b22	0.053309567
17	0x3d9d7b65	0.07689551
18	0x3d263a1c	0.04058276
19	0x3d49c85c	0.049263343
20	0x3d9b2f3a	0.07577367
21	0x3e5f6bbe	0.21818444
22	0x3d27d1a7	0.040971424
23	0x3d28f05e	0.041244857
24	0x3d5c9db0	0.05386132
25	0x3d546ff0	0.051864564
26	0x3d657ede	0.056029193
27	0x3d5f44ae	0.054508857
28	0x3d409b24	0.047022954
29	0x3d8a0f4a	0.067411974
30	0x3d694e04	0.056959167
31	0x3d582b02	0.05277539
32	0x3d3cf0ce	0.046128087
33	0x3d5b3ade	0.053522937
34	0x3d636c0f	0.055522975
35	0x3e0c0d76	0.1367701
36	0x3d3bf370	0.045886457
37	0x3d4dd238	0.05024931
38	0x3d4bc5b3	0.049749088
39	0x3d883b12	0.06651892
40	0x3d5ffc45	0.054683942
41	0x3d31d08a	0.04341177
42	0x3d3b857e	0.045781605
43	0x3d4cabde	0.049968593
44	0x3d4d84b0	0.05017537
45	0x3d782c6b	0.060589235
46	0x3d685b22	0.056727536
47	0x3d330672	0.04370732
48	0x3d2e4cc8	0.042553693
49	0x3d4e1772	0.050315328
50	0x3d76732c	0.06016843
51	0x3d4be5dd	0.04977976
52	0x3d5649ff	0.052316662
53	0x3d3b33fd	0.045703877
54	0x3d761c9b	0.060085874
55	0x3d87dd9f	0.06634068
56	0x3d44411a	0.04791365
57	0x3d5d57a5	0.054038662
58	0x3d6e223a	0.05813811
59	0x3d943cde	0.07238172
60	0x3d557a3a	0.052118517
61	0x3d57f0af	0.052719768
62	0x3d76d791	0.060264174
63	0x3d962f54	0.07333246

classifier.1.weight f4 [128, 576]
0	0xbca1e1da	-0.019761015
1	0xbbdfe109	-0.006832246
2	0xbcb5e57b	-0.022204151
3	0x3d201dbc	0.039090857
4	0xbca5e8ce	-0.020252611
5	0x3bd9152d	0.006624839
6	0xbd1155b6	-0.03548213
7	0x3ccd8eb2	0.025092456
8	0xbca59978	-0.020214781
9	0x3c07281c	0.008249309
10	0xbc005cff	-0.007834672
11	0x3cc3b6c6	0.023890864
12	0xbc9629c6	-0.018330466
13	0x3c7155c1	0.014729918
14	0xbcf43c4b	-0.029813906
15	0x3c294ac9	0.010332772
16	0x3d0f9e7b	0.035063248
17	0x3cc6d9ce	0.02427378
18	0x3d11a52d	0.035557915
19	0xbcec3b1b	-0.028836777
20	0xbc828fdb	-0.015937736
21	0x3b500220	0.0031739548
22	0xbc681cbe	-0.014167009
23	0x3cd82887	0.026386512
24	0x3cdcab0e	0.026937034
25	0xbcab5682	-0.020915274
26	0xbc83d500	-0.016092777
27	0xbd023560	-0.031789184
28	0xbc706a2c	-0.014673751
29	0x3c1328dd	0.0089819105
30	0x3d5fcdca	0.054639615
31	0xbd28e3f1	-0.041233007
32	0xbd32b6ef	-0.04363149
33	0xbbe10c04	-0.0068678875
34	0x3c4e4a58	0.012590967
35	0x3cf2b621	0.029627861
36	0xbca09ade	-0.019605096
37	0x3c29de3f	0.010367929
38	0x3cdbbd45	0.02682365
39	0x3d3e8d9d	0.04652177
40	0xbcd46fb8	-0.025932178
41	0xbc323fed	-0.010879499
42	0x3b943da3	0.004523949
43	0x3cbf7431	0.023370834
44	0x3d23ea0d	0.04001813
45	0xbc672afa	-0.0141093675
46	0xbcf3d08a	-0.029762525
47	0x3cb94820	0.0226174
48	0xbc9dc668	-0.019259647
49	0xbd004b0a	-0.031321563
50	0xbd5223d5	-0.051303703
51	0x3c2261b3	0.009910989
52	0x3c7bed3f	0.015376388
53	0x3c93c2da	0.018037248
54	0xbd1cb8c9	-0.038262162
55	0xbc1441a8	-0.009048857
56	0xbcb356b3	-0.021891927
57	0x3b986e3d	0.0046518133
58	0x3d55db0d	0.052210856
59	0x3d789a56	0.06069406
60	0xbbaa8277	-0.005203541
61	0x3c0e780b	0.008695613
62	0xbc8381f2	-0.016053174
63	0xbb9d1345	-0.004793557
64	0x3cee115d	0.029061014
65	0xbd19611e	-0.037446134
66	0x3be5c6b8	0.0070122145
67	0xbd1253a3	-0.035724293
68	0x3c9f6fb9	0.019462453
69	0xbcd59923	-0.026073998
70	0xbd4411d2	-0.047868557
71	0x3d2087cf	0.039192017
72	0x3c6b9ff3	0.014381397
73	0x3c8d7749	0.017268794
74	0xbcc723d5	-0.024309078
75	0xbc55d9d2	-0.013052421
76	0xbbe8a398	-0.00709958
77	0x3d28c672	0.041204877
78	0x3c62fcc4	0.013854209
79	0xbd02e626	-0.031957768
80	0xbd2ef076	-0.04270979
81	0x3d1dab46	0.038493417
82	0x3d4fbc67	0.050716784
83	0xbbda649e	-0.0066648265
84	0xbcb06463	-0.021532243
85	0xbd26cc74	-0.040722325
86	0xbd11111c	-0.035416707
87	0xbcb2573b	-0.02177011
88	0x3cf3c4bc	0.029756896
89	0x3c986b46	0.01860584
90	0xbc5300bb	-0.012878592
91	0x3cdf71dc	0.027275972
92	0x3d71cd68	0.05903378
93	0xbc898911	-0.016788991
94	0xbc74a60b	-0.014932166
95	0xbc29c5a6	-0.0103620645
96	0x3cdddff9	0.027084338
97	0xbd42cdfe	-0.04755973
98	0xbd4ed87a	-0.050499417
99	0x3bb1ea87	0.005429569
100	0xbc033534	-0.00800829
101	0x3c41112a	0.011783877
102	0xbc6eca21	-0.0145745585
103	0xbc175985	-0.009237652
104	0xbd7cab5a	-0.06168685
105	0x3d0998a2	0.033592828
106	0xbcbde972	-0.023182604
107	0xbcb2e3e4	-0.021837182
108	0xbc5a67ee	-0.013330443
109	0x3d03800f	0.032104548
110	0xbd24e063	-0.040253054
111	0x3c9f8fbe	0.019477721
112	0xbc80cc60	-0.015722454
113	0x3b6fb94f	0.0036578958
114	0x3d00caf6	0.03144356
115	0xbc7c7783	-0.015409353
116	0xbac42bad	-0.001496663
117	0xbb138661	-0.0022510516
118	0x3c9f2e17	0.019431157
119	0xbcf58159	-0.029968904
120	0xbbb8cba0	-0.0056395084
121	0x3c9a3f6e	0.018829074
122	0xbd1d40bb	-0.03839181
123	0xba8733e2	-0.0010315145
124	0xbc52ae2b	-0.012858908
125	0xbada4c89	-0.0016654889
126	0xbd2d5553	-0.0423177
127	0xbb9eb06f	-0.00484281
128	0x3bc174bb	0.005903808
129	0x39ecf402	0.00045195228
130	0x3a3f4e11	0.00072977046
131	0x3b8ef473	0.0043626367
132	0xbc4e20b8	-0.012581043
133	0x3d4bbad3	0.049738716
134	0x3d421957	0.047387447
135	0x3cbfb190	0.023400098
136	0x3c7b1be6	0.015326476
137	0xba47fbf7	-0.0007628793
138	0x3d17bd63	0.037045848
139	0xbba5d667	-0.005060959
140	0xbc51a566	-0.012795782
141	0xbd350703	-0.04419614
142	0x3c8aa833	0.016925907
143	0xbbce55a8	-0.006296832
144	0xbcc533df	-0.024072586
145	0xbb48e1d9	-0.0030652194
146	0xbce18064	-0.027527042
147	0xbcf609ab	-0.030033907
148	0x3c1bca78	0.0095087215
149	0xbc157b5d	-0.00912365
150	0xba7cb348	-0.0009639752
151	0x3c7d65ba	0.015466148
152	0x3c7abc8c	0.015303742
153	0x3c17cc79	0.009265059
154	0x3cb8270c	0.022479557
155	0xbcd13bd2	-0.02554122
156	0xbd03e3f8	-0.03219983
157	0x3c690c9c	0.014224198
158	0x3b8f787d	0.004378377
159	0xbc06f0bd	-0.008236107
160	0x3c25ef98	0.010127924
161	0xbc9167f5	-0.017749766
162	0x3bcbe6f4	0.0062226
163	0x3ced2f0a	0.028953094
164	0xbcaaca19	-0.02084832
165	0xbcccb23f	-0.024987338
166	0x3cdec948	0.027195588
167	0xbc3939a3	-0.011305246
168	0x3cdbc203	0.02682591
169	0x3c17a97f	0.00925672
170	0x3cbf2b8f	0.0233362
171	0x3ad00f85	0.0015873766
172	0xbcafec42	-0.021474961
173	0xbd1079bd	-0.03527235
174	0x3d04e582	0.03244544
175	0xbd2cc7ba	-0.04218266
176	0x3cf45187	0.029824032
177	0x3cb1e31b	0.021714738
178	0xbc8fbe6c	-0.017546855
179	0xbcb92270	-0.022599429
180	0x3c8414ca	0.016123194
181	0xbcf393f0	-0.029733628
182	0x3d174e02	0.03693963
183	0x3d3e5034	0.046463206
184	0x3d893058	0.06698674
185	0x3bcac1d5	0.0061876574
186	0xbbd96acf	-0.006635047
187	0x3bb16b34	0.005414391
188	0x3d6715f2	0.056417413
189	0xbcd9fe86	-0.026610624
190	0x3d368db9	0.04456875
191	0x3a6888cf	0.0008870484
192	0xbcc7899f	-0.024357615
193	0x3c6f0cca	0.0145904515
194	0x3d53701b	0.051620584
195	0x3cd50b25	0.02600629
196	0x3c87451f	0.016512452
197	0x3cb180d0	0.021667868
198	0x3bd96838	0.0066347383
199	0xbd73660a	-0.059423484
200	0x3bc579f0	0.006026499
201	0xbd4ce977	-0.050027337
202	0x3d062c05	0.032756824
203	0xbc6c0e3b	-0.01440769
204	0x3c99ecd1	0.01878968
205	0xbce0ddaf	-0.027449457
206	0x3c94a107	0.01814319
207	0xbc04afad	-0.008098525
208	0xbc5fed61	-0.013667435
209	0xbd1860a5	-0.037201542
210	0x3d062d3e	0.03275799
211	0x3d8e82d3	0.069585465
212	0x3d0de60c	0.034643218
213	0xb9b8b738	-0.00035231723
214	0xbcd61afb	-0.026135912
215	0x3cbcb2d8	0.023034498
216	0xbcc0d91e	-0.02354103
217	0x3d122038	0.035675257
218	0xbc85183b	-0.016246906
219	0xbd5c67aa	-0.0538098
220	0xbd2af5ce	-0.041738324
221	0xbcd8158b	-0.02637746
222	0xbb676abc	-0.0035311421
223	0xbc0cead9	-0.008600914
224	0x3c8a5d52	0.016890202
225	0xbd3a07bc	-0.045417532
226	0xbc94aea2	-0.018149678
227	0xbcda1b87	-0.026624454
228	0x3d0f67f8	0.03501126
229	0xbd01bbbd	-0.03167318
230	0xbc622fc7	-0.013805336
231	0xbd3cfabd	-0.04613756
232	0xbcdf432b	-0.027253708
233	0x3c0d2fff	0.0086174
234	0xbca314da	-0.019907404
235	0xbc6cde0e	-0.014457239
236	0x3cbf5e97	0.023360534
237	0xbc984dda	-0.01859181
238	0x3d50856c	0.05090849
239	0x3cd10e78	0.025519595
240	0x3cb7292c	0.0223585
241	0x3d054831	0.03253955
242	0x3d032079	0.03201339
243	0xbb46fdfc	-0.0030363789
244	0x3d6dcb7e	0.058055393
245	0x3a12771c	0.00055872067
246	0xbbaceb49	-0.0052770716
247	0x3ce2f8df	0.027706562
248	0x3d15d009	0.03657535
249	0xbd095dc7	-0.0335367
250	0xbb0acff5	-0.002118108
251	0x3c575586	0.013142949
252	0x3c9e6f2c	0.01934012
253	0xbcfa4c14	-0.030553855
254	0xbca5c3d6	-0.020234983
255	0xbbc90250	-0.006134309

classifier.1.bias f4 [128]
0	0x3d0c985f	0.034325
1	0x3a80352b	0.000978147
2	0xbc31f5de	-0.010861842
3	0x3d0d7d5e	0.034543388
4	0xbbec19b4	-0.0072052125
5	0x3cb2a015	0.021804849
6	0x3c951b59	0.018201517
7	0x3d00efa8	0.031478554
8	0xbc4fdac8	-0.012686439
9	0xbca11977	-0.019665463
10	0xbcc4fa2f	-0.024045078
11	0x3cc2bcf9	0.02377175
12	0xbc5b5bf8	-0.013388626
13	0xbcb53475	-0.02211974
14	0xbcc9ff87	-0.024657978
15	0x3be582af	0.007004104
16	0x3d013786	0.031547092
17	0xbca25971	-0.01981804
18	0xbcb53053	-0.02211777
19	0x3d203dd7	0.039121475
20	0x3cbc1c35	0.022962669
21	0x3cc91eb2	0.02455077
22	0x3be90bc6	0.007111999
23	0x3d1ab84c	0.037773415
24	0xbd0b4f24	-0.03401102
25	0xbd1eb574	-0.038747266
26	0x3d1f285c	0.03885685
27	0xbbb51ee2	-0.005527363
28	0xba8ec7fe	-0.0010893343
29	0x3b59a605	0.0033210528
30	0x3cd3c359	0.025849985
31	0x3b13dd8f	0.002256248
32	0x3cefd0b4	0.029274322
33	0xbd0af00d	-0.033920337
34	0x3c0e59ec	0.008688431
35	0x3cb51706	0.022105705
36	0xbbe02a62	-0.00684099
37	0xbd218786	-0.039435886
38	0x3c6a9f8c	0.0143202655
39	0x3c641608	0.013921268
40	0x3b41e6b7	0.002958698
41	0xbd1179a5	-0.0355164
42	0x3cd3d6ad	0.025859201
43	0xbca45215	-0.020058671
44	0xbb969bc4	-0.0045962054
45	0xbae12492	-0.0017177036
46	0xbc14a8ab	-0.009073417
47	0xbc9bb3b0	-0.01900658
48	0xbc4dc9db	-0.012560333
49	0x3cbba4ed	0.022905791
50	0x3b931ed1	0.0044897576
51	0x3d109b80	0.035304546
52	0xbd14d179	-0.03633258
53	0xbd0b3bc2	-0.033992536
54	0xbc5066e7	-0.012719846
55	0xbace222f	-0.001572674
56	0xbc27f38b	-0.010250936
57	0xbd077254	-0.033068016
58	0xbd374804	-0.044746414
59	0x3c8c1ae4	0.017102666
60	0x3ce49a2b	0.027905544
61	0x3bba4470	0.005684428
62	0x3d400446	0.046879075
63	0x3c0064d9	0.007836544
64	0xbc85607b	-0.016281357
65	0x3c48fd1c	0.012267377
66	0x3d146bf6	0.036235772
67	0xbc1ff0be	-0.009761987
68	0xbbd26820	-0.006421104
69	0xbc0bc8d5	-0.008531769
70	0x3d2aa198	0.041658014
71	0x3c9c3cbb	0.019071927
72	0xbd08791e	-0.03331863
73	0xbb90bfa7	-0.004417378
74	0xbd164372	-0.036685415
75	0x3cff4863	0.031162446
76	0x3c2213e4	0.009892438
77	0x3cc3104b	0.02381148
78	0xbcab94ce	-0.020944979
79	0xbc45bbe4	-0.012068722
80	0x3b44d388	0.003003331
81	0xbcb7997e	-0.022412058
82	0xbca75040	-0.020424008
83	0xbba0c4a7	-0.0049062553
84	0x3cf91356	0.030404728
85	0x3b31be84	0.0027121613
86	0x3c086bc7	0.008326477
87	0xbb75edab	-0.0037525694
88	0xbcfe73b4	-0.03106103
89	0xbb5c7a9c	-0.0033642417
90	0xbd0acded	-0.033887792
91	0x3ce459f5	0.027874926
92	0x3bbd362b	0.0057742796
93	0x3c84b3c3	0.016198998
94	0x3cdd1ef1	0.026992293
95	0x3cb7d410	0.022439986
96	0xbbceda70	-0.006312661
97	0xbae88ab3	-0.0017741531
98	0xbd2116fe	-0.039328568
99	0xbc1faa98	-0.009745263
100	0xbd212ce6	-0.03934946
101	0xbbbce28b	-0.0057643107
102	0xbba64789	-0.0050744456
103	0x3c8f9bf8	0.017530426
104	0x3cc68b61	0.024236383
105	0x3c6166b5	0.013757397
106	0x3d19e419	0.037571047
107	0xbbb77524	-0.005598681
108	0x3b3e2ff8	0.002902029
109	0xbcb5097b	-0.022099247
110	0xbd13949e	-0.036030404
111	0x3cf1665c	0.029467754
112	0xbb68addf	-0.0035504026
113	0x3c9b3632	0.01894674
114	0x3d254b62	0.040355094
115	0x3d2ed06e	0.042679243
116	0x3ca9ffcb	0.020751854
117	0xbc7d06fb	-0.015443559
118	0x3c6e417e	0.014541982
119	0xbc7f8d78	-0.015597694
120	0x3d1e014d	0.03857546
121	0x3c72098c	0.014772784
122	0x3d2d1391	0.042254988
123	0x3ccc2f87	0.024925007
124	0xbd08093e	-0.03321194
125	0x3d32d81b	0.043663125
126	0x3bc08f36	0.005876447
127	0x3d12de03	0.035856258
